code/DNN_dome_lr0.0001_epoch_test.pth (torch, 311770 bytes, 6 tensors)

fc1.weight f4 [256, 171]
00000000: 22db 9dbd 9890 303d 8641 7bbc ee78 863d
00000010: 0a82 213d f200 403d 04d7 3b3d f5e0 36bd
00000020: 668e a8bc 41da 49bd 81dc 21bb ab82 0e3c
00000030: 03fc 78bd c854 11bb 7d41 4a3d 692d 8fbd
00000040: f669 a9bc 44c2 b83c bd74 803d 508e 4fbd
00000050: 25d0 bdbc 2769 fe3c 5f12 6fbd 048d c53c
00000060: 1c3d 9ebc 61f6 a83c 5884 dd3c 779d 4abd
00000070: d2d0 87bd 389a febc 42a8 353d d968 333d
00000080: 1f23 46bd 7364 a63d a4ba e13c eef0 81bd
00000090: f607 44bc 69e3 37bd 7d71 03bd 0dc8 8f3d
000000a0: 7a45 6e3d 07d5 92bd fe81 2a3d 9cd3 8a3c
000000b0: 2771 9c3d f4bc 90bd 3cce 69bc b6bc 14bd
000000c0: 65ea 8abd 0431 0abd a4b7 93bc 6dac f7bc
000000d0: 27d0 05bc fb95 883d 790c 313d 5730 953b
000000e0: 68c5 82bd c9d0 6f3d 2561 15bd bc43 8bbd
000000f0: 3e33 e0bc d35c af3b 9005 2dbc 4fd6 52bd
00000100: 4d2d 4bbc 359b 863d 075c d03c 7127 0f3d
00000110: 0653 c53c e9a6 813d fc25 26bd 88bf ea3c
00000120: 6f84 f3bc c1c7 3f3d ab61 da3c 67bc 6cbd
00000130: 1032 34bd 2eab 183d 71c8 85bd 5d85 523d
00000140: e64b a83b cb49 2abc abf0 ddba 25a7 933d
00000150: d8b9 1bbd a7c2 483d bf6d e33c 2d95 ab3c
00000160: 3112 a23d 0fbe 2dbd 2951 2c3d aec3 813d
00000170: b27d 37bd 6e5f 00bd a8c6 863d e6a1 1ebd
00000180: 174a a8bc a1e5 8ebb c316 5a3d 586e babc
00000190: 890a 883c ba4a fc3c e0aa b13c e064 47bd
000001a0: 424d 8b3d 1370 fd3c 900f 463c 1e4e 8abd
000001b0: 4695 bf3c 7aaa 833d cfa3 33bc d7a2 3b3c
000001c0: 3b9c 50bd 3bc9 903d 6739 fe3b f006 423d
000001d0: 4d05 0338 1dff 113d 0107 0dbd 03ae 333d
000001e0: fb99 a4bb 49a8 ffb9 c0bc 13bd 9a99 af3c
000001f0: 4834 44bd 2bdd d2bc bfba 84bd a2b5 8c39
00000200: aca2 4e3d c069 3e3d b709 113a bcc3 97bd
00000210: 3c92 a13c 2ee4 34bb d744 8ebc cc29 903d
00000220: 222b 4fbc fe99 a7bc d730 7fba 004e 05bd
00000230: d19e d63c cdb9 ad3c d0d4 b6bb 566b 833d
00000240: e317 65bb b0a2 bb39 ef76 05bd 42a7 1bbd
00000250: 7edf 6bbd e0ef 7bbd 6729 bd3c e8da 6cbc
00000260: f954 793d 7a8e 463d 81bd 8fbc a75f 2fbd
00000270: 44c4 3dbc f9e5 7f3d 18c0 943d 31ad 09bd
00000280: 0f97 5bbd e363 803b cf02 79bd 22f2 8bbc
00000290: 7337 b1bc 433c 253b 672b 783d 2ca3 933d
000002a0: c303 e6ba 19c4 7b3d 85db 7b3d 62b8 003b
000002b0: c17d 31bd bb69 e0bc 0b92 fbbc bd87 2cbd
000002c0: 7a25 f83b 2b13 283c fe42 f3bc 4f4e 1d3d
000002d0: 1add 5abd 8997 ad3d 6ce8 c33c 1d9b 83bd
000002e0: 888e 2e3c c8c6 74bd 1dbe 1d3c 4588 203d
000002f0: 60b4 9f3b ebd8 a3bc 9a31 483d 16db 293d
00000300: e58f 7c3c ae2f a33c 99e6 213b 22f0 3fbd
00000310: 1c50 04bd 0fb1 e1bc 1cd4 92bd 1fb3 3f3d
00000320: d04d 633d 539e 97bd 84a9 6b3d ab2e 34bd
00000330: 4b41 97bc 7668 20bd 18de 983d 6b8b a13d
00000340: 3274 57bd 2b3b d03c 67ae d53b 900a 2abd
00000350: 50a6 28bd 9452 773d f91b 8bbd 9617 95bc
00000360: 4493 103d e07f 903d 1cb4 9c3d 7771 2d3d
00000370: 44a8 8f3c 1c8d 32bd 54f6 83bd 729b 9e3b
00000380: f58c 8ebd 3490 f33c 5820 ef3b f4b3 39bd
00000390: 8de0 503d 32bd 29bd 2b52 593c e0b8 6ebc
000003a0: 7e93 0abb 8289 73bd e9ea cebc c4ae 8abd
000003b0: 8319 49bd acd3 873d 0534 3ebd 4e02 06bd
000003c0: 6214 e43c 6706 89bd a2f0 8bbd 7de0 7cbd
000003d0: c401 583c 9f43 3ebd f1fd 50bd 3b38 bcba
000003e0: 7a82 2c3c c28f 65bd 091b f23c 16a0 003d
000003f0: 1a01 88bc cfa0 4a3d f055 933c f71f 93bd
-0.07707812 0.043106645 -0.015335446 0.06566034 0.039430656 0.0468759 0.04585935 -0.04464813
-0.020575713 -0.04928041 -0.002469808 0.008698146 -0.060787212 -0.0022175778 0.04937886 -0.06991083
-0.020680409 0.02255357 0.06272266 -0.05067283 -0.02317054 0.031056 -0.05836713 0.024115093
-0.019316249 0.020625295 0.027040645 -0.049466576 -0.06631626 -0.031079397 0.044349916 0.043801162
-0.048373338 0.08124628 0.027554817 -0.06344782 -0.011964789 -0.04489461 -0.032090653 0.070205785
0.058171727 -0.07169538 0.041627876 0.016946606 0.076387696 -0.0706729 -0.0142703615 -0.03631278
-0.067829885 -0.03373815 -0.018031903 -0.030233586 -0.008167303 0.066692315 0.043224785 0.0045528817
-0.063853085 0.058548722 -0.036469597 -0.06800029 -0.027368184 0.0053516417 -0.010560408 -0.05147391
-0.012400937 0.06572572 0.025434507 0.034949724 0.02408744 0.06330664 -0.04056357 0.028655782
-0.029726235 0.04682136 0.0266579 -0.057796862 -0.043993056 0.037272625 -0.06532372 0.051396716
0.005136001 -0.01039357 -0.0016932687 0.07209615 -0.03801903 0.04901376 0.027762292 0.020945156
0.07913626 -0.042417582 0.042069588 0.06336151 -0.044797607 -0.03134101 0.065808594 -0.038728617
-0.020543141 -0.00436087 0.053244364 -0.022757694 0.016606586 0.030797351 0.021687925 -0.048680186
0.06801845 0.03093723 0.012088671 -0.06753181 0.023386609 0.06429 -0.010964348 0.011452398
-0.050930243 0.07069632 0.0077583077 0.047369897 3.123777e-05 0.035643686 -0.034430508 0.043867122
-0.0050232387 -0.00048762772 -0.036068678 0.021435548 -0.04790142 -0.025740227 -0.064809315 0.00026838208
0.050448105 0.04648757 0.00055327587 -0.0741038 0.01972305 -0.0027601826 -0.01736681 0.07039222
-0.012644561 -0.020459171 -0.0009734756 -0.03254509 0.026198776 0.02120676 -0.0055795684 0.06416957
-0.0034956865 0.0003578863 -0.032584127 -0.038001306 -0.057586186 -0.06150806 0.023091031 -0.014456488
0.060872052 0.04847572 -0.017546417 -0.04281583 -0.011582438 0.06247518 0.072632015 -0.033612434
-0.053610858 0.0039181574 -0.060793694 -0.017083231 -0.021632886 0.002521292 0.060588267 0.07208857
-0.0017548729 0.06146631 0.061488647 0.001964115 -0.04333282 -0.027394166 -0.030709287 -0.042121638
0.007572827 0.010258476 -0.02969503 0.03840476 -0.053433515 0.08476169 0.023914538 -0.0642607
0.010654099 -0.059759885 0.009627846 0.039192457 0.0048737973 -0.020000895 0.04887543 0.041468702
0.0154151665 0.019920196 0.0024704097 -0.046859868 -0.03230296 -0.027550248 -0.07169363 0.046801683
0.05549413 -0.07403245 0.05753471 -0.04398982 -0.018463751 -0.03916212 0.07464236 0.0788792
-0.052601047 0.025418838 0.0065210345 -0.04151398 -0.041174233 0.060381487 -0.06792445 -0.018199723
0.035296693 0.0705564 0.07651541 0.042344537 0.01753629 -0.043591604 -0.06443468 0.004840308
-0.06960479 0.029731847 0.007297557 -0.045337632 0.0509954 -0.041440196 0.013264219 -0.014570445
-0.002114504 -0.05945731 -0.025258498 -0.06771615 -0.049096595 0.0663217 -0.04643633 -0.03271704
0.02784175 -0.06690674 -0.068330064 -0.061737526 0.013184015 -0.046451207 -0.051023427 -0.001436002
0.010529155 -0.0560453 0.029553907 0.03140267 -0.016602088 0.049469765 0.017985314 -0.07183831

fc1.bias f4 [256]
00000000: baaa 98bd b20c 903d 6dd4 35bd cb51 69bd
00000010: e12d 5cbb 491c 563c dcdb 8bbd 7a83 50bd
00000020: cff0 3f3d 5a6f 78bc 7b14 40bd fc38 92bc
00000030: 90ed c73c 8774 2fbc b077 a33c e4ce 723d
00000040: ad00 793b 8ee9 0e3d 165a 4dbd 8f5a f3bc
00000050: 870f 263d 4b91 703b 3a70 5b3d 36fd d93b
00000060: 68dc e73c 8fde 2ebc df3e 7c3c 96a5 15bd
00000070: 9982 0dbd 2c8c 4f3b f451 8abd 0a72 91bd
00000080: 71b5 953d fb71 5fba f032 64bd 5241 dabc
00000090: e076 16bb ec67 653d cf0b 8c3d c9f8 9fbc
000000a0: 032f 26bc 2a55 8f3d 0b50 443c c0b9 073d
000000b0: 96c3 013d 4b7c 673d 3cc7 ca3c 6d71 cfbb
000000c0: 4069 953d da06 68bd 56b3 b73c d4b9 54bd
000000d0: b9a3 df3c f50f 2dbd 2991 6bbd 4a6f 5b3d
000000e0: c9df 5b3c 27d7 0bbd 5666 a8bc 72ec 09bd
000000f0: 6668 bebc 3e2f 453d 2317 283d cf07 65bd
00000100: c4a5 0f3d 8b8e 73bd 8954 513d c867 803d
00000110: 5cc8 c7bc 3ead 913c 9bed 643d d66c 9a3c
00000120: 538f 643c 740b 223d 8dec 06bd 8233 223c
00000130: 24e6 78bc ec2b 9b3b 5795 11bd 3cce 113d
00000140: f4f5 43bd 08b2 6a3d 4463 26bd 3985 adba
00000150: 6836 f1bc 15b8 533d 6d95 56bd 8208 44bb
00000160: b633 853d 2886 813d 749d 65bd 5a55 823d
00000170: 32b7 1f3d a741 79bd 6121 ae3c 0d17 77ba
00000180: 290e b5bc f9d4 78bd 9859 9abd 34b1 63bd
00000190: 0021 81ba c711 873d ac7e d0bc 6ff9 7b3d
000001a0: d3fb 84bd 057d 50bb b45f 003c aac9 39bd
000001b0: aa3a c1bb a78c 2bbd 7b90 093c a09b 6ebc
000001c0: 01c8 f4bc f46c 763d 1c8e 143d 1041 54bc
000001d0: 3ce7 da3c 488d 163b 90fa c6bb 8471 173d
000001e0: 6e83 113d 70b8 9e3c d986 673d 0a3e 363d
000001f0: ec8d 573b c858 63bc c496 eb39 25f4 943d
00000200: 7670 1e3d 3c36 163d d323 e93c eead 6e3c
00000210: 18b9 183d b0e6 9e3c efda 493d ca27 e33c
00000220: ae4e 893d 1e5a 06bd 1785 4d3c f336 6f3d
00000230: 44fd d93c bc0c 363b a7a6 e7bb e047 22bc
00000240: 5e53 babc 6a45 8e3d a6d8 44bd 7cac 5cbd
00000250: 0c1b 12bd 8061 233d 4cf3 d0bc d178 05bd
00000260: cbcf d9bc 188f 1ebc 3614 91bd 459d 9b3d
00000270: 8e39 74bc 3cf6 973c f043 7bbc 1660 af3c
00000280: e2e3 0e3d 8f09 f43c bc47 2dbd df38 223d
00000290: 2983 963b 2dc3 07bd ee87 193d 7205 493c
000002a0: 18b8 c13c b819 8d3d c4f7 903c d491 b4ba
000002b0: a09b 363d 2211 213c c498 25bd 1c62 64bd
000002c0: 9024 173c 3f19 9a3c dd50 69bd 20dc a83c
000002d0: 4626 f4bc 69d8 8abd 8053 a43c 972d 8fbd
000002e0: e954 5ebc aa49 2a3d b45a 763d 9e16 303d
000002f0: 172c d9bb 8874 683c c4d2 6cbd 5d17 96bd
00000300: 37f0 fabc 8ae5 56bd 9891 033c 4202 0c3d
00000310: d3ce 81bb 4ccc 6dbd d1b2 373d c6a4 63bd
00000320: f58c 173d a875 573c 1eda 29bc ad82 343d
00000330: 3d2c 10bd 478c 1d3d 3a78 8ebd 536a 96bc
00000340: efbe a2bd 9746 85bc e2ea c33c c9bb 3b3d
00000350: 59e3 fa3a 587e 463d 9cea 9dbd 7e98 713d
00000360: 1d08 eebc 5082 56bd c244 c8bb bfc9 acbc
00000370: 4be7 efbc a800 98bd bd4d 133d 8071 39bd
00000380: 5400 653d 7c29 803c 7bb3 063b 6cd9 9abb
00000390: ef7f 0ebd 6ee3 90bd a7f1 bcbc 181c 823c
000003a0: 0614 223d 006e 643a 6b85 81bd 5d40 4bbd
000003b0: 2631 423c 29ce 953d aa8e fc3c 10df 623d
000003c0: f60b c7ba 6d42 9bbc b342 5dbd 0ce4 a4bc
000003d0: f1e8 30bd dce7 313b 2deb 8dbb 442e 623d
000003e0: 98f5 b83c d2ee 3ebd ffe0 7fbd 29ee 623b
000003f0: 3815 9d3d 1a8e c83b a60f 043d 117c 14bd
-0.074544385 0.070336714 -0.044392038 -0.05696277 -0.0033596682 0.013068267 -0.06829044 -0.050906636
0.046860512 -0.015163267 -0.04689453 -0.017849438 0.02440527 -0.010708935 0.019954532 0.059279338
0.0037994788 0.034890704 -0.05013474 -0.029706268 0.04054215 0.0036707695 0.053573824 0.0066524995
0.02830334 -0.010673179 0.015395849 -0.03653487 -0.034548376 0.0031669242 -0.067539126 -0.07101829
0.07309998 -0.00085237593 -0.05571264 -0.026642475 -0.0022959039 0.05600731 0.0683819 -0.01952781
-0.010143044 0.06998666 0.011981974 0.03313613 0.031680666 0.05651502 0.024753205 -0.00633066
0.072954655 -0.05664716 0.022424381 -0.051935032 0.027299749 -0.042251546 -0.057511482 0.05357293
0.013420054 -0.034140732 -0.02055661 -0.033672757 -0.02324314 0.048140757 0.04103769 -0.05591565
0.035070196 -0.05946211 0.05110601 0.06269795 -0.024387531 0.017782804 0.05589066 0.018850725
0.013950187 0.039561704 -0.032940436 0.009899976 -0.015191589 0.0047354605 -0.035542812 0.03559707
-0.04784198 0.05729869 -0.04062201 -0.0013238556 -0.029444888 0.051689226 -0.052388597 -0.0029912298
0.06504004 0.063244164 -0.056058362 0.06363936 0.038993068 -0.060853627 0.02125615 -0.0009425737
-0.022101479 -0.06074998 -0.0753662 -0.055588916 -0.0009851754 0.06595188 -0.025451027 0.061517175
-0.06493344 -0.0031812799 0.007835317 -0.045358337 -0.005896886 -0.041882183 0.008396263 -0.014563471
-0.029880526 0.0601625 0.03626834 -0.012954965 0.02672159 0.0022972394 -0.00607235 0.03697349
0.03552573 0.019375056 0.056525085 0.04449276 0.0032890989 -0.013876148 0.00044935022 0.072731294
0.03868147 0.036672816 0.028459465 0.014567835 0.037285894 0.01939711 0.049281057 0.027728934
0.0670446 -0.032800786 0.012543938 0.058402013 0.026610024 0.0027778586 -0.007069427 -0.009904832
-0.02274483 0.069468334 -0.048058175 -0.05387543 -0.035670325 0.039887905 -0.025506638 -0.032585923
-0.026588341 -0.009677671 -0.07083933 0.07598356 -0.0149063 0.01855003 -0.015336022 0.021408122
0.034885295 0.029789714 -0.04230474 0.039605018 0.004593272 -0.03314512 0.03748315 0.012269365
0.023647353 0.06889671 0.017696269 -0.001377637 0.04458201 0.009830745 -0.04042889 -0.055757627
0.009225026 0.018810866 -0.056961883 0.020612776 -0.029803406 -0.06779558 0.020059347 -0.069911174
-0.013570049 0.041574158 0.060145095 0.04299032 -0.0066275704 0.014187939 -0.05781819 -0.07328675
-0.030632121 -0.052465 0.008030318 0.03418184 -0.003961423 -0.05805616 0.044848267 -0.055577062
0.03699966 0.01315061 -0.010366945 0.044069935 -0.03519844 0.038463857 -0.06956525 -0.018361246
-0.07946574 -0.016269011 0.023915712 0.045833383 0.0019141241 0.048460335 -0.07710764 0.05898332
-0.029056603 -0.05237037 -0.006111712 -0.021092294 -0.029285094 -0.07422 0.03596281 -0.045274258
0.055908516 0.015644781 0.0020553756 -0.0047256257 -0.034789976 -0.07074629 -0.023064448 0.015882537
0.039569877 0.0008713901 -0.063242756 -0.04962193 0.011852538 0.073147126 0.030829746 0.05538851
-0.001518606 -0.018952573 -0.054018687 -0.020128272 -0.0431909 0.0027146256 -0.0043310137 0.055219904
0.022578046 -0.046614476 -0.062470432 0.0034626818 0.07670063 0.0061204555 0.032241486 -0.03625113

fc2.weight f4 [128, 256]
00000000: 8c7a 5cbd 18ae b0bc 984a 623d b452 66bd
00000010: 4c10 983c 006e b83a 2ac7 263d a46c 2e3d
00000020: e0fa 243c e6c1 69bd aa9f 09bd 36d5 2ebd
00000030: 2a96 33bd 8041 693c 3406 cabc 2e8a 0ebd
00000040: 7407 07bd 1866 ec3c 2a89 3ebd 68b3 07bc
00000050: f273 6d3d c696 13bd c8a9 d8bc 8eb1 4e3d
00000060: 1c78 673d e8fe 853c 28c6 1f3d 000e 72bc
00000070: 44c5 e03c 0021 ef3b c0db 763d cc30 c13c
00000080: 68b3 50bc 3841 57bc 8c95 f83c 2072 dfbc
00000090: 10fb 313c 1079 d4bc cc3c ae3c 64ee d6bc
000000a0: 20f7 b1bb 0ccd 74bd 685c f7bc 14bc e8bc
000000b0: 60ba e2bb ea48 50bd ec47 45bd dc48 d2bc
000000c0: 1292 66bd 40ce 993a 58cd 373d c883 c93c
000000d0: c804 b1bc 80bf ad3a 4446 8abc 1452 c2bc
000000e0: 00f5 f03b d4aa e13c d033 2dbc f0dd 3c3c
000000f0: 5c80 6b3d 34d3 963c c04c 3fbd 746b bcbc
00000100: 74ac 643d 4e10 413d f0e1 25bd b610 1f3d
00000110: 4ca8 883c d6e4 5c3d 98a3 e63c 02f0 15bd
00000120: 12a9 54bd 08e8 ec3c d897 00bd 888f 8abc
00000130: ccb2 523d fa13 043d 0085 123d 1ad5 0dbd
00000140: aa1f 3f3d 7413 7fbd 18a1 22bd a48b d6bc
00000150: 80ee ecbb ba2b 2e3d 9251 633d 1a7e 35bd
00000160: 94a0 3fbd 387f 5ebd fe73 48bd 4835 ad3c
00000170: 4891 a03c f85a d53c 8aea 54bd a8db 3bbc
00000180: 7ca0 76bd 74e1 26bd eee8 78bd 8029 623d
00000190: 3860 c53c 28ae 77bd 9447 0e3d 3891 c6bc
000001a0: 5a3d 23bd b0e5 ef3c 30c2 493c 868b 45bd
000001b0: ca7a 753d 7cdd 3c3d 0aae 543d 489f d73c
000001c0: 9cf7 12bd a84b 63bd 06af 62bd 6495 39bd
000001d0: 4238 6e3d 7826 5f3d 5cd6 bfbc f667 5e3d
000001e0: a0e3 c33b 08c5 10bc 201d d3bc 6050 363d
000001f0: 809c d23c 6212 0d3d 9089 ac3c ec70 633d
00000200: 786a de3c 8246 29bd 7820 45bd 50e0 f4bc
00000210: b8df 033d d4a8 013d 1495 cfbc c052 ac3c
00000220: 58f4 0dbc b8ca f43c 4011 283d 606d 6f3b
00000230: cc6d 63bd b08c 563c 98b7 7e3c 903b d43b
00000240: 8647 6dbd 1638 77bd 78ef f33c 78f5 033d
00000250: 40ca 603d a09e 4abd 3075 0c3d 5a1f 23bd
00000260: acc2 1fbd 7883 1dbd e0c6 82bc a019 31bc
00000270: c0a9 5abb ce1b 5abd 084b 2e3c a001 193d
00000280: 9079 3c3c e0e1 b43b c8b0 bbbc 1885 0e3c
00000290: 2cf2 8b3c 4af6 06bd 0865 0f3d a815 adbc
000002a0: c44d efbc 78f6 5ebd c626 36bd 14b6 923c
000002b0: 6cab 3cbd 588e 4c3c c058 cf3c 6845 9dbc
000002c0: d0ae 8fbc 1eb1 663d e0b8 db3b b29d 163d
000002d0: 687d 64bc f00a f63b f47d 6bbd 5ce9 e13c
000002e0: 1033 a13c 902c 55bc d0a5 1c3c 50c4 67bd
000002f0: aa36 1d3d 106a a63c a881 d7bc f4ff df3c
00000300: 202f 623b f866 4abd 4612 59bd eaba 72bd
00000310: a2d1 54bd 582d 1abd 8006 82bc 20a1 073b
00000320: 24f0 1dbd 087b 4e3c 20e9 46bb f0ca cbbc
00000330: 7eed 093d c663 59bd 76ed 353d d09f 163d
00000340: 7a7d 74bd 1289 63bd fad4 2ebd f40a 9abc
00000350: 38f7 e8bc 608b 4cbb c07c 203b 00b5 31ba
00000360: 20e0 20bd 9a45 22bd e00b 7b3c 546a b1bc
00000370: 1805 bc3c 9c5b 413d 6e2b 6b3d 74d8 c73c
00000380: e63f 05bd 2c97 4d3d 7465 8abc b216 413d
00000390: f897 f73c 26c7 0dbd c0d0 09bc e0b6 033b
000003a0: 4eea 6e3d 7c81 55bd d0fb 5e3d 5cbe 743d
000003b0: 50a8 1bbd 3c71 35bd bc83 61bd 90d6 52bc
000003c0: 341f ff3c 44ca 103d d8a3 733c f447 f8bc
000003d0: 9c83 443d aaad 2d3d b044 283c 208f 44bb
000003e0: 0c2e 05bd 2a24 063d e8a5 4bbc 3645 17bd
000003f0: 4688 103d 9864 683d 6421 ec3c 30a1 713d
-0.053827807 -0.02156739 0.05524692 -0.056231216 0.018562458 0.0014070868 0.04071728 0.042584077
0.010069579 -0.05706968 -0.033599533 -0.042683803 -0.04384438 0.014236808 -0.024661161 -0.034799747
-0.032966092 0.028857276 -0.04651753 -0.00828252 0.057971902 -0.03603246 -0.026448146 0.050462298
0.05651103 0.0163569 0.039007336 -0.014773846 0.027437814 0.007297635 0.060268164 0.023582838
-0.012738086 -0.013138108 0.030344747 -0.027276099 0.010863081 -0.025936633 0.021269225 -0.02623672
-0.005431071 -0.05976586 -0.03019543 -0.028409995 -0.0069191903 -0.050850786 -0.048164293 -0.025669508
-0.056291647 0.0011734441 0.044873565 0.024598971 -0.021608725 0.0013255924 -0.016879208 -0.023720779
0.007353425 0.027547278 -0.010571435 0.011527523 0.05749546 0.018411256 -0.046704054 -0.023000456
0.055828527 0.04713469 -0.040498674 0.038834296 0.016681813 0.053929172 0.02815418 -0.036605842
-0.05191905 0.028919235 -0.03139481 -0.016914144 0.051440045 0.032245614 0.03577137 -0.034627058
0.046661057 -0.06227441 -0.039704412 -0.026189633 -0.00723058 0.04252217 0.055497713 -0.044309713
-0.046784 -0.054320544 -0.048938744 0.02114357 0.019600525 0.026044354 -0.051981486 -0.011465944
-0.060211644 -0.040742353 -0.060769014 0.05521536 0.024093732 -0.060468823 0.03473623 -0.024239168
-0.03985343 0.029284328 0.012314364 -0.048228763 0.059931554 0.04610966 0.05192379 0.026321068
-0.03588067 -0.055492073 -0.055342697 -0.045308486 0.05815912 0.054480046 -0.023417644 0.054298364
0.0059780627 -0.008836038 -0.025770724 0.044510245 0.02570939 0.03444136 0.021061689 0.055527613
0.027150378 -0.041327007 -0.048126668 -0.029892117 0.032195777 0.031655148 -0.02533964 0.021035552
-0.008664213 0.02988182 0.041032076 0.0036533698 -0.055524632 0.013095066 0.015546702 0.006476827
-0.05792954 -0.060356222 0.029777274 0.03221652 0.05488038 -0.049467683 0.034291446 -0.03982482
-0.039004013 -0.038455456 -0.015963972 -0.010809332 -0.003336534 -0.053249173 0.010638006 0.037355065
0.011503592 0.0055200905 -0.022911444 0.008698724 0.01708325 -0.032949723 0.03500846 -0.02112849
-0.029211886 -0.05443427 -0.04447057 0.017909087 -0.04606192 0.012485109 0.025310874 -0.019198135
-0.017539412 0.056321256 0.0067053884 0.036771484 -0.013945915 0.007508628 -0.057493165 0.027577095
0.019677669 -0.013011113 0.009561017 -0.056583703 0.03838221 0.020314246 -0.026306942 0.027343728
0.0034512952 -0.049414605 -0.052995943 -0.059260286 -0.051957734 -0.0376409 -0.01587224 0.0020695403
-0.038559094 0.012602575 -0.0030351356 -0.024877042 0.033673756 -0.053073667 0.044415914 0.036773503
-0.059689976 -0.055550642 -0.04268358 -0.018804051 -0.028438196 -0.0031211004 0.002448842 -0.0006778985
-0.039276242 -0.03961716 0.015322655 -0.021657147 0.022951648 0.047206506 0.057414465 0.024395205
-0.03253164 0.050192997 -0.01689408 0.047140785 0.030223832 -0.03461375 -0.008411586 0.0020098016
0.05832892 -0.05212544 0.054439366 0.059751853 -0.038002312 -0.04429744 -0.055057272 -0.0128685385
0.031142808 0.035349146 0.014870606 -0.030307747 0.047977075 0.042401947 0.010270283 -0.0029992536
-0.032514617 0.032749332 -0.012429692 -0.03693124 0.03528621 0.05673656 0.028824516 0.05899161

fc2.bias f4 [128]
00000000: 982d f1bc b8aa 38bd bf0b 543d 8736 b9bc
00000010: ce3b 5a3d 599e f5bc 80da f4bc f056 58bd
00000020: 3037 073c 6592 543d 4c1c f23c 3740 40bd
00000030: ffee eb3c fd0c 03bd 02bb 933b 5284 793d
00000040: 2324 ed3c 5110 643d 97c5 fa3c 6821 4bbd
00000050: 8b5c 53bd 9853 993b 178d a73b 9817 afbc
00000060: 807b 4d3d 1ab0 a63c 23d5 0c3d c2cc 00bd
00000070: 52ec 943b 7386 3fbd 4e83 2c3d 0e89 f6bc
00000080: dc98 5d3d 1851 86bc c015 113b a6e7 0fbd
00000090: 6042 f23c 4cc9 2a3d 44a3 b43c 812f a4bc
000000a0: 80eb fc3b ea97 25bd 1c31 d13c 45a2 093d
000000b0: 36e4 3dbd d8ed d63c a9a5 8dbb b1f4 283d
000000c0: a9bd 393c 55c8 42bd c446 343d c731 ad3c
000000d0: a2dc 173b 4e95 843d a789 7b3c d479 55bd
000000e0: 9db8 903b 4867 36bd 94f2 2cbd 1aad c2bc
000000f0: 567c 63bd cee7 4e3d fe11 0a3d be4e 6cbd
00000100: 330b edbc 2ef6 85bc f081 e03c 88a9 853d
00000110: 7420 533d c0b9 02bc 4bfe 3bbd 538f 1a3d
00000120: d583 823d 50e2 40bd 1a14 bd3c a233 08bd
00000130: 29b9 173d 8bbe 1ebd 2482 dcbc cb96 18bc
00000140: de81 41bc 0355 7b3d 7457 dc3c c6d5 5b3d
00000150: 1475 2cbd 85c7 56bd fc77 6a3d 561c 2f3d
00000160: ae03 4dbd e0c3 43bc db66 21bd c01f a4bc
00000170: 00e1 903b 7eb3 6c3d 3f4c 25bc e6cd 59bd
00000180: cd5b 323d f0ad 323c 1945 68bd f08e f63c
00000190: 80ea efbb 73e2 4dbd 24f4 4fbd 6046 803d
000001a0: b2e8 033c 74ef 3c3d 18a1 01bd 5566 72bd
000001b0: e409 cabc 9a79 f2bc 2fde bf3c f2c7 4d3d
000001c0: 36a4 34bd 4c50 5b3d 6fda ed3a e025 28bb
000001d0: 2cb3 bf3c 7879 623d b68a 1a3d 5256 5abd
000001e0: a6ba 25bd 4929 a6bc 6005 aabc b1e6 283c
000001f0: aa47 f8bc 0ded 54bd 9f3f 5cbd a07c 193d
-0.029440686 -0.045084685 0.051769014 -0.022609008 0.05327969 -0.029982733 -0.029889345 -0.052817285
0.008252904 0.051897425 0.029554509 -0.04693624 0.028800486 -0.03199481 0.004508377 0.060917206
0.028947895 0.055679623 0.030611796 -0.049592406 -0.051601928 0.0046791546 0.0051132548 -0.021373555
0.050166607 0.020347644 0.03438295 -0.031445272 0.004544773 -0.04675908 0.04211741 -0.03009465
0.054100856 -0.01639609 0.0022138208 -0.035133027 0.029572666 0.041695878 0.022050507 -0.020042183
0.0077185035 -0.04042808 0.025536112 0.033602018 -0.046360217 0.02623646 -0.0043227267 0.04124898
0.011336722 -0.047554333 0.0440128 0.0211419 0.002317228 0.0647379 0.015352643 -0.052118137
0.004416539 -0.04453209 -0.042223528 -0.023764182 -0.055538498 0.050514035 0.033708565 -0.057692282
-0.028936004 -0.01635274 0.027405709 0.06526476 0.05154462 -0.007978857 -0.04589681 0.03773434
0.06372801 -0.04709083 0.023080874 -0.033252366 0.037041817 -0.038755935 -0.026917525 -0.009313296
-0.011810748 0.06136037 0.02689717 0.053670667 -0.042103842 -0.05243637 0.057243332 0.042751633
-0.050052337 -0.011948556 -0.03940473 -0.02003467 0.0044213533 0.057788365 -0.010088979 -0.053174876
0.04354458 0.010905728 -0.05670652 0.030097455 -0.0073216558 -0.050264787 -0.05076994 0.06263423
0.008051084 0.046126798 -0.03164777 -0.059179623 -0.02466292 -0.029599 0.023421375 0.05023951
-0.044101916 0.053543374 0.0018146763 -0.002565734 0.023400865 0.055291623 0.03772994 -0.053304978
-0.040461205 -0.020283358 -0.020754516 0.010308907 -0.03030761 -0.05198388 -0.05377161 0.037472367

fc3.weight f4 [2, 128]
00000000: ad86 9b3d b430 5dbd 2eef b33d 1e89 9bbc
00000010: ca81 c2bc 5c34 88bc 348c 823c c090 7f3c
00000020: 8096 edbb 8bf6 66bd d4c7 d6bc 1499 6dbd
00000030: 19d6 543b 8965 313d 2b96 82bd 9f51 493b
00000040: 067c e93c 1a3a ca3c b348 86bd 13ef f13c
00000050: 8e99 3abc 2864 5b3d 7500 2d3d bd6b 4e3d
00000060: 5a93 eabc 221b fe3b 142b a73d a73a ab3d
00000070: 7106 7d3d 67c7 f1bb 3f23 39bc 6079 373d
00000080: b7bb a8bd ff82 153d ee4c 603d 008e 4439
00000090: 0d72 8abd 2f83 ac3d 8031 053a 561f 4c3d
000000a0: c062 69bb 89ea 08bd 4a63 67bd a8a9 7fbd
000000b0: f8f0 57bd 703c 4b3c a119 a0bc 4c31 ffbc
000000c0: ca15 0b3d 4175 94bd 4a54 d4bc 12ed 1cbd
000000d0: 7380 443c 1c6f 00bd 1461 23bb ee74 95bd
000000e0: c252 7fbd 38e7 1bbd 9c79 cd3c b0a8 96bd
000000f0: afbb 903d f0db fe3b fa32 61bd 42e6 7d3d
00000100: ef5f b43d 31aa b6bd dd26 9a3d 6e9e 9c3d
00000110: cd15 573c 202e 713c 167f b03d 141d febc
00000120: a800 583d e7f2 55bc 0b79 3c3c f9a6 8b3d
00000130: 9fbd 6dbd 05b1 09bb 3d57 8c3d f7cd a63d
00000140: 4313 8f3d 0408 8bbc dda3 693d ec57 85bd
00000150: e820 6d3c 899d b03b 169a 83bd 174d 9fbd
00000160: 1de4 2f3d f9a0 b03d 498f babd 71f5 b4bd
00000170: 0840 9bbd 54ef d8bc d665 3b3d 355c d53c
00000180: de0b 22bc 5075 2ebc adbc 753d 1009 ea3c
00000190: 3e33 1ebd f9ba 3c3d 2678 dabc da1a 6c3c
000001a0: 40ea 94bd 26a1 363c a56f 16bd dd52 5e3c
000001b0: 68f4 853c 63d4 1fbd 6618 183d ecc4 953c
000001c0: 89cf 4cbd d04b 243d 21bf 9a3c 8285 613d
000001d0: 58f1 1e3d 3e97 c7bb 8c11 143d 6cbd af3c
000001e0: 92ec d43c 742c aa3d 1644 a4bd 2a77 8f3d
000001f0: b950 2fbd 94ad 6bbd 7f00 05bd 9eda 1d3d
00000200: 9a43 7dbd c80b 023c 80a8 43bd 7bfc 8abd
00000210: 3cbc 3b3d b9d0 5bbd ff4c 9abd 70e3 90bb
00000220: e4ce bdbc 44e8 243c abf2 40bd 1773 b93c
00000230: 3aa0 41bd 4ffe 2e3d 4dc3 57bb 45f8 b1bc
00000240: 4dfc 0bbd 4652 7abd f672 7bbd 6653 223d
00000250: ec39 913c 36a4 90bc 65c9 8b3d 6020 0fbd
00000260: 2afd 2f3d 3be8 8c3d 49ac b13d a14d a8bd
00000270: 2f25 a93d 5936 a83b 2139 8ebd 85d5 b2bd
00000280: 2d35 57ba a309 6839 1769 893d 2939 ae3d
00000290: bf9e 143d e0ce 4cbb 4857 bb3c 8ab2 e9bc
000002a0: a02a 6ebd bc01 8e3d 3598 d8bc 6136 373c
000002b0: 0fa5 70bc f0d5 1a3c 1093 58bc bbf4 84bd
000002c0: 8ab6 853d f829 cfbc 4ecb 063d 1bb6 8b3d
000002d0: 56d8 c13c d380 3ebd 6c70 87bd fa51 453d
000002e0: aa8d abbd dd19 36bc 1845 0b3d 01c7 8ebd
000002f0: 7390 863d 4021 6d3c 00aa 4cbc eedc 563d
00000300: 2cbd 17bd 0b2c c53c 121a 513d 3697 08bd
00000310: d5a5 30bc 6ed6 643d d3b0 13bd 2a32 833d
00000320: 38b2 453a 08b9 7e3d 5c56 3bbc 5b7f f53a
00000330: c488 1abd b0d3 9a3d 6ba7 923d 3516 7bbd
00000340: 4b32 8cbd 90b8 71bc 61e2 1e3c 70b1 65bc
00000350: 75e5 963d b996 1d3d 5d51 a23d 81e9 a0bd
00000360: 62e5 dbbc e0db 58bd 8f14 763d c3e8 2b3d
00000370: 5e3c 863d 1efd 183d 4d0e f9bc e083 e139
00000380: 43e8 703c 8d7c 90bd 7919 873d fca5 91bd
00000390: 2e6b e1bc 4a51 21bd 01e0 c5bc 3d9a 39bd
000003a0: fec1 793d 9fa8 a9bc 519c aabd 4b70 b43b
000003b0: 806e 8d3c a0bd 1dbd e3de b43d 2a7a 043d
000003c0: bd4c 833d a08d 043d 7e4b 5ebd e79f 3abd
000003d0: 30a0 acbd 6483 58bd e206 5b3d 409a b43c
000003e0: 03a4 8dbd 238b 88bd 172d 833a 351a e23c
000003f0: dbb0 d23c 19be 753d f03c 833c 40f1 db3a
0.07594047 -0.054001525 0.08785854 -0.018986281 -0.023743529 -0.01662653 0.015935995 0.015598476
-0.007250607 -0.056387465 -0.026218332 -0.058007315 0.0032476245 0.043309722 -0.063762985 0.0030718816
0.028501522 0.024685908 -0.06556835 0.029532945 -0.011389149 0.053562313 0.042236764 0.050395716
-0.028634716 0.0077546993 0.081625134 0.083607964 0.06177372 -0.007378507 -0.011299907 0.044793487
-0.08238929 0.03650188 0.054760866 0.00018744916 -0.06760035 0.08423459 0.00050809234 0.04983457
-0.0035611838 -0.033426795 -0.056491174 -0.062417656 -0.05272004 0.012404546 -0.01954347 -0.031151436
0.033956327 -0.07248927 -0.025919098 -0.038312025 0.011993515 -0.031355962 -0.002492969 -0.07297693
-0.062334783 -0.038062304 0.025082402 -0.07356393 0.07067048 0.0077776834 -0.054980256 0.06198717
0.088073604 -0.0891918 0.07526944 0.076474056 0.013127756 0.01472047 0.0861799 -0.031019725
0.052735 -0.013058401 0.011503468 0.06818957 -0.058042165 -0.0021010053 0.06852577 0.081447534
0.06986096 -0.016971596 0.057041038 -0.065109104 0.0144731775 0.0053898734 -0.06425874 -0.077783756
0.042942155 0.08624453 -0.09109361 -0.08835877 -0.07580572 -0.026481308 0.045751415 0.026044944
-0.009890525 -0.010648087 0.05999439 0.028568774 -0.038623087 0.04607675 -0.02666862 0.014410699
-0.07271242 0.011146819 -0.036727566 0.013569561 0.016351894 -0.039020907 0.037132643 0.018282376
-0.05000261 0.040111363 0.018889965 0.055058964 0.038804382 -0.0060910275 0.036149547 0.021452628
0.025991712 0.0830926 -0.08020799 0.070051506 -0.042801592 -0.057538584 -0.032471176 0.038538568
-0.061832048 0.007937379 -0.047768116 -0.06786438 0.04583381 -0.05366585 -0.07534217 -0.004421644
-0.023169942 0.010065142 -0.047106426 0.022637887 -0.047271945 0.042722996 -0.0032922805 -0.02172483
-0.03417616 -0.06111362 -0.061388932 0.039630316 0.017727815 -0.017656427 0.06825522 -0.034942985
0.042966045 0.06880232 0.08675439 -0.082179315 0.08259045 0.005133432 -0.0694449 -0.08732132
-0.0008209523 0.00022128834 0.067094974 0.08506996 0.036284205 -0.0031251237 0.022868767 -0.028527517
-0.05814612 0.069339246 -0.026439765 0.011182399 -0.014687791 0.009450421 -0.013218656 -0.06491991
0.06528957 -0.025288567 0.03290873 0.06821843 0.023662727 -0.046509575 -0.0661324 0.048173882
-0.0837663 -0.011114565 0.03400144 -0.06971551 0.0657052 0.014473259 -0.012491703 0.05245679
-0.037045643 0.024068853 0.051050253 -0.03334733 -0.010781725 0.05586856 -0.036057305 0.064060524
0.000754151 0.06218818 -0.011434164 0.0018729971 -0.037728086 0.075599074 0.07160839 -0.061300475
-0.0684553 -0.014753476 0.009697528 -0.014019355 0.07367984 0.03847382 0.07925675 -0.07857037
-0.026842777 -0.052944064 0.0600782 0.041970026 0.06554483 0.037350766 -0.030402327 0.000430136
0.014703813 -0.07055006 0.065966554 -0.07111737 -0.027516928 -0.039384164 -0.024154665 -0.04531311
0.06097602 -0.020710288 -0.08330596 0.0055065504 0.017264605 -0.03851092 0.08831575 0.032343067
0.06411121 0.032361627 -0.054271214 -0.04556265 -0.08428991 -0.05285968 0.05347336 0.022046208
-0.069160484 -0.06667163 0.0010007945 0.027600387 0.025719097 0.059995744 0.016020268 0.0016780272

fc3.bias f4 [2]
00000000: b8d0 c3bc ee5e d53c
-0.023903236 0.026046243
