code/DNN_dome_lr0.0001_epoch_test.pth (torch, 313131 bytes, 7 tensors)

fc1.weight f4 [256, 172]
00000000: 6006 e83c b1ae ec3b 0dc4 51bd 396d 16bd
00000010: d793 6c3d 9ce7 61bc 1415 753d ce92 2bbd
00000020: 9f82 97bb 078c e3bc e492 8dbd 5962 bb3c
00000030: f321 81bd 3fa7 c4bb efb6 033d 9add 8dbd
00000040: 1e7e 183d 031e b43d 6cbf f63b e674 473d
00000050: 818d 41bc 5dfa 3ebd d682 8fbc e311 ca3c
00000060: 1ef6 323d e600 583d ce9d 25bd 0f0e 333d
00000070: 8b9f ef3c b093 803d 8088 ca3b 2190 3bbd
00000080: 8481 3dbd cb7e 323d 16bf 5dbc 2fea 953d
00000090: 346a dfbc 6e14 213d 7444 21bb be30 d53c
000000a0: d773 263d a0ab 733d b5f8 12bd 0a6e ec3c
000000b0: b71a 0bbd 969b 0bbd 9ac7 273d 6c8e bdbc
000000c0: 136c 7dbd cb32 6a3d f5f2 773d 8a58 383c
000000d0: faff 4cbc 8e18 073c 3931 9bbd 4a71 883d
000000e0: 5b19 b9bc 490b 92bc 835a 80bc 26ed 2cbc
000000f0: 77de 6abc 4726 7bbd 228b ea3b 7c12 8bbd
00000100: 64be 99bd e721 43bd 0aa8 6abc 2ebc 36bd
00000110: 7dc0 983d 7f9f aebc 2ff5 823d 28e0 5ebc
00000120: 0b46 08bd a978 2abc a536 833d a0e1 23bd
00000130: 9a27 debc 04b0 bf3c 3a9a 7ebb e553 583d
00000140: 787f 363d 593b e83a 6aeb 59bd 6252 04bd
00000150: d2f0 31bd ced2 8c3d 4329 5c3c d3c3 a93c
00000160: 8466 94ba 1c16 403d f863 dc3b 9d0c 2c3d
00000170: 8928 f3bc 34b7 673c cc65 7f3c 2bc2 313d
00000180: d6f8 913d 0d83 17bd 7d3d 323d b682 3cbd
00000190: 592c c3bc 475d 99bc ce61 813d b841 c7bc
000001a0: f999 273d f3ca 90bd 4b28 83bc 88e3 5d3d
000001b0: 10df ce3c d1b2 873c 100e 63bd b9ed e6bc
000001c0: 95c6 953d 4b8d 69bd 9d33 5a3b e116 be3c
000001d0: ae73 c9bc 2a70 9bbc a70b 15bd cc07 ffbc
000001e0: e286 b5bb 34b8 afbc ad59 86bd 2c6b 6c3d
000001f0: c2c2 6bbd 1bdd 9bbd 682b b33c 5d58 94bd
00000200: 9510 043d f3bd 14bd 57ad cdbc 5ec1 6d3d
00000210: 81c2 96bd 3c99 853b 2666 3bbd e3c0 523d
00000220: 1f06 74bd 2f8d 59bd 0e6f 50bc 95b3 29bd
00000230: 68fe a03b c6e8 36bd 56bc 92bc b8f7 bbbc
00000240: ad18 dbbc 14c9 0b3d 1fdd 61bd 9ba6 673d
00000250: 7450 7a3d ebdb 72bd 2a00 353b 471d a73d
00000260: e518 e6bb 2c2c f2bc be08 483d 9fd2 85bd
00000270: 4f7b 8d3d ef20 1b3d c1e3 953d 72c6 90bd
00000280: c943 7a3d 4c44 a1bc e71e ea3c 2504 f93b
00000290: 4b7a 91bd 49e1 813d 31ed 8ebc dae4 5d3d
000002a0: 8b33 bcbc 6404 62bd 0fd6 b0bd d912 593d
000002b0: 640b 46bd e5b4 5bbd f838 a83c 9db8 71bd
000002c0: 3c71 823d 6e23 09bd 283f bd3c f20a 01bd
000002d0: 9479 af3c 2e0c 333d d214 973d aa60 89bd
000002e0: 2057 ddbb 3041 4cbd c415 95bd 9285 983d
000002f0: de4e c0bc cc4f c43c 8e43 40bd 5637 f0bc
00000300: 1cf3 6b3d 706c 2b3d 9677 84bd a4c8 15bd
00000310: d0ba c93b c030 30bd 3041 d23b 4c42 7a3d
00000320: bb16 61bd c0ad c7ba 304e 5fbc 64a4 3c3d
00000330: 5b92 94bd 1ee9 10bd 467d 813d ea70 e4bc
00000340: 9aa9 8f3d 8004 fc3c 18e2 923c 50dc b53c
00000350: 67c4 20bd d366 8abd 7efb 32bd f822 8d3c
00000360: fe6f 8abd 6454 8fbd 9e35 933d fcb9 05bd
00000370: 7098 913d d6c4 51bd d051 853d b454 79bc
00000380: c4dd 4b3d ec7c 603d 3c47 67bc 96e5 99bc
00000390: 900b 91bb 7aa9 66bd f817 573d 5863 973d
000003a0: 76b6 53bd c2f6 cfbc 78c6 1dbc a804 393c
000003b0: 8e9c 263d f65a 2e3d 1841 ae3c ae49 e9bc
000003c0: c8a1 0f3d 3f5f 1dbd 1829 493c 3e03 75bd
000003d0: 98f7 2bbd 1ead efbc 04b4 2d3d b056 8e3c
000003e0: a028 3a3d f40a ac3c a60c 3e3d ea75 14bd
000003f0: c48c d23c 98c1 01bc e891 f3bc 805c babb
0.028323352 0.0072229733 -0.05121236 -0.036725257 0.05775818 -0.01378813 0.059834555 -0.04188805
-0.0046237255 -0.027776731 -0.06912783 0.022874044 -0.063053034 -0.0060013826 0.03215688 -0.06927033
0.03722965 0.08794787 0.0075301435 0.048695467 -0.011813522 -0.046625484 -0.017518442 0.024666732
0.043691747 0.05273523 -0.040433697 0.04371458 0.02925088 0.06278169 0.006180823 -0.04579175
-0.046266094 0.04357795 -0.013534328 0.073200576 -0.027272321 0.039326124 -0.0024607452 0.026024219
0.040637817 0.059489846 -0.035881717 0.028861064 -0.033961024 -0.034083925 0.04096184 -0.023139201
-0.061870646 0.057177346 0.060534436 0.011251578 -0.012512201 0.0082456 -0.07577748 0.06662233
-0.022595098 -0.017827647 -0.01566816 -0.0105545875 -0.014335266 -0.0613158 0.007157699 -0.06790635
-0.07507017 -0.047639754 -0.01432229 -0.044613056 0.07458589 -0.021316288 0.06394421 -0.013603248
-0.033269923 -0.010404744 0.06406907 -0.040010095 -0.027118493 0.02339936 -0.003884925 0.052814383
0.044555157 0.0017717882 -0.053203024 -0.03230513 -0.043442555 0.06876145 0.013437572 0.02072326
-0.0011322056 0.046896085 0.0067257844 0.042004216 -0.029682415 0.0141428 0.015588235 0.043398064
0.0712754 -0.036990214 0.04351567 -0.046023093 -0.023824858 -0.018721236 0.06317483 -0.02432333
0.040918324 -0.070699595 -0.016010424 0.05417207 0.025252849 0.016564758 -0.055433333 -0.028189527
0.07313267 -0.057019513 0.0033294924 0.023204269 -0.024591293 -0.018974382 -0.036388066 -0.031131648
-0.005539761 -0.02145014 -0.06560073 0.057719395 -0.057558782 -0.07610532 0.021871284 -0.072434165
0.032242376 -0.036313962 -0.025107069 0.058045737 -0.073613174 0.004077105 -0.045751713 0.051453482
-0.05957615 -0.05311316 -0.01272179 -0.04143103 0.00491314 -0.044655584 -0.017912071 -0.02294527
-0.026745165 0.03412731 -0.055142518 0.05655537 0.061111882 -0.05929176 0.0027618506 0.08159881
-0.0070220106 -0.029562078 0.048836462 -0.065343134 0.06908285 0.037873205 0.07318831 -0.070691004
0.0610998 -0.019685887 0.028579189 0.007599371 -0.07103404 0.06341798 -0.017447086 0.054173328
-0.022973796 -0.05517997 -0.086345784 0.05299649 -0.048350707 -0.05363931 0.020534977 -0.05901395
0.06369254 -0.033481054 0.023101404 -0.03150458 0.021420278 0.043712787 0.07377018 -0.0670789
-0.006754771 -0.049866855 -0.07279542 0.074473515 -0.023475107 0.023963831 -0.046939425 -0.029323261
0.057604894 0.04185146 -0.06468122 -0.0365683 0.006156303 -0.04301524 0.0064164624 0.061098382
-0.054953318 -0.0015234277 -0.013629481 0.046055213 -0.072544776 -0.035378568 0.06322722 -0.027885873
0.07014771 0.030763865 0.017930076 0.02219978 -0.039249804 -0.067578934 -0.043696873 0.017228588
-0.06759642 -0.06998518 0.07187961 -0.03264807 0.07109153 -0.051213108 0.06509745 -0.015217949
0.04977204 0.054806635 -0.014116105 -0.018786233 -0.004426427 -0.05631397 0.052513093 0.07391995
-0.05168768 -0.025386218 -0.009629838 0.011292614 0.040676646 0.042567216 0.021271273 -0.028477516
0.035066396 -0.038420912 0.012277864 -0.059817545 -0.04198417 -0.029257353 0.042408004 0.01737532
0.0454489 0.021001317 0.04639878 -0.036245264 0.025701888 -0.0079196915 -0.02973266 -0.0056872964

fc1.bias f4 [256]
00000000: cdb5 98bd d04d c5bb 126b 353d 14a1 2cbd
00000010: be6a 383d 68a2 30bc 3475 4bbd 9d1c 243d
00000020: 7ede 223d b554 bcbb 6c14 8fbd 7d19 063d
00000030: 926b 91bd 1813 203d 5277 4ebd dcfe 93bc
00000040: 5d77 553d ea89 3f3d 7621 2bbd 9890 873d
00000050: c7a5 94bd cabc 5b3d c0fe f63c 7b6f 673d
00000060: 4fdf 313b ee85 8e3d e20c f0bc 60a3 fd3c
00000070: 7a90 77bc 7b8d 32bd d54e 96bd f4e8 663d
00000080: 88e5 8cbb 8154 51bd be54 43bd 36a8 4e3d
00000090: 9a2f 7abb 77d7 dd3c 5180 7ebc 3ec5 2d3d
000000a0: 3c23 f83c 006a 323c 26bc e6ba 2d01 e0bc
000000b0: 8356 08bd 1480 cfbc 1ab3 5f3d b445 cb3a
000000c0: cecc 9cbc c47f 7d3d 392f 513d 5847 dbbc
000000d0: 6cac 013c a4c5 83bd 0ecb 523d 021b a3bb
000000e0: 642e bdbc 20f7 babc 81e2 1c3d 609f 4dbd
000000f0: eed1 8ebd 6b3d d4bc 750e b33b 7633 353d
00000100: d802 823d 80bb 663d 9b56 8fbd 9353 773c
00000110: 901c 993c 60b9 8a3c 02b8 aabc 69da 7d3d
00000120: 88a1 08bc 71a8 1dbc 50f5 93bd 18f1 763d
00000130: 9ade 8d3a 807f 4cbd a0b2 0f3b 2dbb 4cbd
00000140: 59c0 763d b67c 82bb 0358 16bc b56c 22bd
00000150: 290d 0bbd 48eb ffbc 6ce0 7ebd e1f9 4a3d
00000160: 6e91 f3bc a2f4 003d 0181 67bd 0b5c 02bd
00000170: af85 803d e675 703d b0d3 963d 8889 8b3c
00000180: cd83 873d 00ba 0dbd bcf0 a9bc 92a9 19bd
00000190: e4f1 0c3d aed7 60bd 38c8 6a3c 18d6 96bd
000001a0: 731a 4e3d 249b 15bd 1016 8f3b 656d fe3c
000001b0: c6ff 04bd f45f 7a3d 50ef 5abc 2204 4bbd
000001c0: 5323 b9bc d8d1 14bc 08d7 9fbc ded4 8abd
000001d0: 0103 39bd 69df 5e3b 47ea 8c3c 3fda 11bd
000001e0: e4ab 3dbd 71d6 553d a5b8 3abd 42b0 93bc
000001f0: ecd7 8d3d d197 1bbd 54b9 8b3c 8243 f7bb
00000200: 6073 923d 5eea 2f3d 0065 00bc d49f 0bbd
00000210: f67b 0cbc df7c 02bd f71b cd3c 1792 743d
00000220: 9c5a 50bd 3af6 edbc d8c6 6a3d fe8e 8dbd
00000230: da88 76bd 8423 73bd c4d0 723d 1ce8 263c
00000240: 7ee3 7cbd 9b68 1e38 c11c 803d b8fb 273d
00000250: 04e2 16bc 1ffa 09bd abbf 6bbc 0b8b 853d
00000260: 25b4 833c 805e 593d 498c b73c 2bd4 d7bc
00000270: f14b 80bd 6c9f 583d d497 623d 9822 42bc
00000280: 79f8 273b f019 5cbd dcfa 99bd 7e53 98bc
00000290: f5be 56bc ee20 e73c 76cd e13b 435a f13c
000002a0: 5f15 6dbd 2f94 7e3d 4e29 83bd 68b9 85bd
000002b0: e42b 80bd 54ed 783d 0dc5 723d 7fea 8cbd
000002c0: dd78 40bd 9e1d 1e3c 15dc 623d a30f 7abd
000002d0: 40dd 67bd 9329 7e3c b008 823d 6c1c 4f3d
000002e0: 4a18 a53c a750 ffbc 6a0f 823d 6337 963d
000002f0: dc6c f5bc 957d 513d 70a3 15bd 7722 6e3d
00000300: 236c 8abd c189 2d3d d493 473d 9b2b 70bd
00000310: 4d4d 96bc ad85 6cbc 8606 553d d21b 163d
00000320: 47b8 84bd 159d 64bb c4da 923d 05d4 9a3d
00000330: 494a 733d 22b2 e3bc 75f8 00bd d0c4 f6bb
00000340: 026e 0ebd 9820 8c3d d0bd 4dbd 833c 0dbd
00000350: 096c 97bc a7ee 763d 0b23 5c3d 680c a6bc
00000360: 2b03 0a3d 2037 723c 2603 2b3d 8235 80bc
00000370: d6ed 68bb afe4 4e3d b596 ca3b 7592 fe3c
00000380: 573c 103d 2df0 57bd 45a9 883d cb14 5abd
00000390: 3eb6 c7bc 99a6 84bc a370 c2bc 89e2 8a3d
000003a0: ff61 993d 6276 c9bc 5201 9abd 78f0 78bc
000003b0: e30a fc3c 2d25 43bd f772 813d e58a 883d
000003c0: c6be b439 7211 07bd 25cb 90bd 8210 133d
000003d0: f43f 51bd 3948 903d 8c99 2bbc 11c5 2a3d
000003e0: 5064 883d 4f9f ab3c ff96 03bd 67f3 8cbd
000003f0: acef fbbc 554d b3bc fe3c cabb c5e6 36bd
-0.07456551 -0.006021239 0.044291563 -0.042145804 0.045023672 -0.010780908 -0.04967232 0.04006635
0.039762966 -0.0057474026 -0.06986317 0.03273915 -0.071005955 0.03908071 -0.05040676 -0.018065862
0.052115787 0.046762384 -0.041779958 0.06619376 -0.07258182 0.05364684 0.030150771 0.0565028
0.002714116 0.06959139 -0.029303018 0.030961692 -0.0151101295 -0.043591958 -0.07339255 0.056374505
-0.004299823 -0.05110598 -0.04768824 0.050453387 -0.0038175345 0.02708028 -0.015533523 0.042424433
0.030290239 0.01088953 -0.001760368 -0.02734431 -0.03328563 -0.025329627 0.054614164 0.0015508444
-0.019140627 0.061889425 0.051070426 -0.026767418 0.007914644 -0.06434181 0.05146318 -0.004977585
-0.02309341 -0.022822917 0.03830195 -0.05020082 -0.06973635 -0.025908193 0.00546437 0.04423853
0.06348199 0.056331158 -0.069989406 0.015095609 0.018690377 0.016934097 -0.020839695 0.06197587
-0.008339293 -0.009622679 -0.07224524 0.06028852 0.0010823787 -0.04992628 0.0021926537 -0.049983192
0.06024203 -0.003982152 -0.009176257 -0.039654452 -0.033948097 -0.03124012 -0.062225744 0.04955471
-0.029732432 0.0314833 -0.056519512 -0.03182606 0.06275498 0.058706187 0.07364595 0.017033353
0.06616936 -0.03460121 -0.020744674 -0.03751523 0.034410372 -0.05489319 0.014329962 -0.07365054
0.050318193 -0.036524907 0.0043666437 0.031058023 -0.032470487 0.061126664 -0.013362721 -0.04956449
-0.022599852 -0.009083234 -0.019511715 -0.067788824 -0.04516888 0.0034007675 0.017201556 -0.035608526
-0.046306506 0.05220646 -0.045586247 -0.018028382 0.069259495 -0.03798658 0.017056145 -0.0075458894
0.07150912 0.04294812 -0.00783658 -0.03408797 -0.008574476 -0.031857368 0.025037749 0.059709635
-0.05086766 -0.029048074 0.05731854 -0.06912039 -0.060189106 -0.059360042 0.059281126 0.010187175
-0.06174039 3.7767557e-05 0.06255484 0.041011542 -0.00920916 -0.0336858 -0.014388959 0.06520661
0.01607711 0.053068638 0.02240576 -0.026346287 -0.06264485 0.05288641 0.055320576 -0.011849068
0.002563028 -0.053735673 -0.07518551 -0.0185945 -0.013107051 0.028213944 0.006890948 0.029461985
-0.05788171 0.062153038 -0.064043626 -0.06529504 -0.062583715 0.06077321 0.059269954 -0.06880664
-0.046990264 0.009650616 0.055385668 -0.06105007 -0.056607485 0.015512842 0.06349313 0.050564215
0.020153183 -0.031166388 0.06350596 0.07334783 -0.029959135 0.051145155 -0.03653282 0.058138337
-0.06758907 0.0423677 0.048724964 -0.058635335 -0.018347407 -0.014436168 0.052008174 0.036647625
-0.064804606 -0.0034883667 0.071706325 0.07559971 0.059397016 -0.027794901 -0.031486947 -0.007530786
-0.03477288 0.06842154 -0.050229847 -0.034481537 -0.018484132 0.06028619 0.053744357 -0.020269588
0.033694427 0.014783651 0.04175105 -0.015650515 -0.0035542152 0.05051106 0.0061825165 0.031075696
0.035213795 -0.052719284 0.066729106 -0.053242486 -0.024378892 -0.016192721 -0.02373535 0.067814894
0.074893944 -0.024592582 -0.07519783 -0.015194051 0.03076691 -0.047642875 0.06320756 0.06667117
0.00034474413 -0.03297562 -0.07069997 0.035904415 -0.05108638 0.070450254 -0.01047362 0.041691843
0.06659758 0.020949988 -0.032126423 -0.06882363 -0.030753933 -0.02188746 -0.0061718216 -0.044653673

fc2.weight f4 [128, 256]
00000000: de25 23bd 0844 643c 90b6 ed3b 0018 c83b
00000010: e897 14bd cc6d 303d 9a5d 1ebd 1664 07bd
00000020: 544c f13c 80c4 ff3a 38a3 2fbd f04f f8bc
00000030: f863 1dbc 5efd 38bd 0851 843c ae83 0d3d
00000040: 406d e6bc fc47 683d a096 3bbb b0d2 ac3b
00000050: 0408 c53c 5a5d 21bd 5c86 383d ec79 4abd
00000060: 7018 d13c e024 5ebd 7a71 7fbd ae91 1cbd
00000070: e2d3 33bd 3872 393d 28ee 343c 48da 27bd
00000080: b8d5 fbbc b0cd 54bd d080 3abd 5064 21bc
00000090: e0e4 593c a013 0a3c 4a60 363d 32d4 69bd
000000a0: 34b7 843c 1823 4cbc fefd 393d d429 33bd
000000b0: 5286 403d 5034 693c fc38 923c 487b 7dbc
000000c0: ea34 0e3d 70d0 0a3c a093 7ebc 08d8 db3c
000000d0: bc9a ac3c dc65 d9bc 18fc 25bd 402e ed3b
000000e0: 6457 ff3c 0425 b63c 80c9 a13a b04b a3bb
000000f0: 40c3 f7bb 40f2 e0bb 948f 34bd e44c a8bc
00000100: e0b8 923b 04e0 d63c 901e 4bbc 6e14 1fbd
00000110: 2838 b8bc dc15 8ebc 8046 45bd 9cbe 49bd
00000120: 7440 7f3d e0a1 47bb 8ab7 343d 7453 6f3d
00000130: c041 06bb b426 04bd f4f0 7b3d 8607 703d
00000140: a81a d83c e01d 283c 707d d93b 809b 79bb
00000150: b0bb 73bc 6676 38bd 00d2 e539 c80a 523c
00000160: f606 17bd aaf0 6c3d e432 763d fc34 223d
00000170: 2446 e2bc 54a8 c3bc 4a18 07bd 2e1e 283d
00000180: c421 613d b48a 48bd aed7 29bd 70fa d9bc
00000190: 20f7 36bd 5073 6a3d 248c 673d a621 5fbd
000001a0: 6443 133d d845 753d 28f3 0f3c ac89 da3c
000001b0: 5895 8bbc f87b 763c 9278 09bd 82e8 313d
000001c0: 884c 28bc e233 47bd b078 9b3b 50b9 24bc
000001d0: c60f 70bd 54b2 04bd bca8 8cbc 6e80 66bd
000001e0: 30f2 5ebc 5276 413d 1621 7a3d 4882 3dbc
000001f0: e05f 753b 609c 133d 88fd 3d3d 10dd f8bb
00000200: b68c 0bbd e0a7 5f3c f037 d83b 7c17 203d
00000210: 7040 bbbc 7ee4 42bd 4475 553d 7221 0cbd
00000220: c0a1 69bb 5efb 2fbd 4608 4d3d 18d0 b1bc
00000230: a842 0c3d 5c35 fd3c 20b8 e0bb 3890 f63c
00000240: c471 3c3d 54a0 ef3c 30de 073d b818 743d
00000250: ecbe 913c 4029 09bb a6d9 78bd 20c0 0a3b
00000260: 407f 263c fe2c 42bd 40fc bcbc 7065 8abb
00000270: 144c 643d 00c4 2cbb 2ca7 a0bc b837 6c3c
00000280: 00d3 07bc ee63 7dbd e0f7 54bc bcff 7abd
00000290: 3261 093d 708e ad3c 84e3 493d 02e6 6abd
000002a0: f8af 8dbc d6ec 03bd 60d3 3d3b b8be 843c
000002b0: 642b 453d 60f2 9fbc 244c bd3c fe20 59bd
000002c0: 3015 05bd dc88 64bd 9ecd 15bd 58c0 ed3c
000002d0: c435 4dbd 30b9 cdbb 7e13 36bd 28ba 863c
000002e0: 208e f83c e412 ccbc c0c2 bebc a8aa 3bbc
000002f0: ccc7 ac3c f058 8f3b 36ee 073d 740c b9bc
00000300: 7037 8b3c a8aa 23bc f84f 2c3c c894 30bd
00000310: 7834 8a3c 9873 4cbc 88d8 cebc 6023 9a3b
00000320: 0c6f 8e3c a451 183d b0d1 e1bc 1a04 7ebd
00000330: 8c58 e8bc 0045 c4b9 3623 13bd 18d5 08bc
00000340: d07b 68bd 767e 1ebd dc11 c5bc 18d8 88bc
00000350: 2089 a23b 0432 72bd cc80 f6bc befd 3e3d
00000360: 7041 8fbc bc43 f33c 0218 1bbd 60b3 2fbc
00000370: ea99 783d 14db 82bc b876 04bd 7a4c 38bd
00000380: 1289 0abd ba1e 7abd ec32 dbbc 8458 cc3c
00000390: 04b4 dcbc e480 e03c 70cd 0a3c a08e babb
000003a0: 78f5 7cbc c8a3 23bd a4a6 9d3c 00d7 ff3b
000003b0: 1838 b63c e030 b3bb 54c0 b1bc 726a 5e3d
000003c0: 1c6d dbbc 9cda eb3c 0a8f 49bd d626 043d
000003d0: 7494 d0bc b047 d63b 32e9 38bd 14f1 15bd
000003e0: 768f 623d 5072 a73b 4081 71bd f8bc d9bc
000003f0: 084f 0abc c014 a9bb 1640 6cbd 86f0 563d
-0.039831035 0.013932236 0.007254429 0.0061063766 -0.03627768 0.04307346 -0.038663484 -0.033054434
0.029455341 0.0019513518 -0.042880267 -0.030311555 -0.009606354 -0.045163505 0.01615192 0.034549408
-0.028128266 0.056709275 -0.0028623715 0.0052741393 0.024051674 -0.039395668 0.04505001 -0.04943268
0.025524348 -0.054234385 -0.06236408 -0.03822487 -0.04390324 0.045274943 0.011043109 -0.040979654
-0.030741557 -0.05195397 -0.045533 -0.0098505765 0.013299197 0.0084275305 0.044525422 -0.05708713
0.01620064 -0.012459539 0.04540824 -0.043741062 0.047003098 0.014233664 0.017849438 -0.015471287
0.03471843 0.008472547 -0.015538126 0.02683641 0.021069877 -0.026537828 -0.04052362 0.0072381794
0.0311696 0.022234447 0.0012343377 -0.004983388 -0.0075611174 -0.006864816 -0.04408224 -0.020544477
0.004477605 0.026229866 -0.012397423 -0.038837843 -0.022487715 -0.017344408 -0.048162937 -0.049254045
0.062317327 -0.0030461475 0.04412035 0.058429196 -0.0020485967 -0.032263473 0.061509088 0.058600925
0.026379898 0.010261029 0.006637268 -0.003808707 -0.014876291 -0.04503479 0.00043834746 0.012819953
-0.036871873 0.057846703 0.060107127 0.03960131 -0.027621336 -0.023883976 -0.03298215 0.041044407
0.054963842 -0.048960403 -0.041465454 -0.026608676 -0.04466927 0.057238877 0.056530133 -0.05447545
0.03595294 0.05988106 0.008786 0.026676975 -0.017038986 0.015044205 -0.03356225 0.043434627
-0.010272153 -0.048633464 0.0047446117 -0.010053948 -0.058608793 -0.03239663 -0.017170303 -0.056274824
-0.013607547 0.04723198 0.06106671 -0.011566706 0.003744118 0.036037803 0.046384364 -0.007594712
-0.03406974 0.013650864 0.006598465 0.039084896 -0.022857875 -0.04758119 0.052113786 -0.034211583
-0.003564939 -0.04296433 0.05005672 -0.021705672 0.034243256 0.030909233 -0.006857887 0.030098066
0.046006933 0.029251255 0.03317088 0.059593886 0.017791234 -0.0020929128 -0.06075444 0.0021171644
0.010162175 -0.04740619 -0.0230695 -0.004223518 0.055736616 -0.0026361942 -0.019610964 0.014417581
-0.008290052 -0.06186288 -0.012998551 -0.061279044 0.03353996 0.021186084 0.04928924 -0.05734826
-0.017295823 -0.032208286 0.00289651 0.016204223 0.048137084 -0.019524753 0.023107596 -0.05300998
-0.03249091 -0.05579458 -0.036573045 0.02902238 -0.050100103 -0.0062781796 -0.044452183 0.016446188
0.030341208 -0.024911352 -0.023286223 -0.011454262 0.021091364 0.004374616 0.03318616 -0.022588946
0.016994208 -0.009989418 0.010517113 -0.04311064 0.016870722 -0.012478732 -0.025249735 0.004703924
0.017386936 0.037187234 -0.027565807 -0.06201563 -0.028362535 -0.00037435442 -0.03592225 -0.008351587
-0.0567587 -0.03869482 -0.024056368 -0.016704604 0.004960194 -0.05912973 -0.030090712 0.046628706
-0.017487258 0.029695384 -0.037864693 -0.010723919 0.06069366 -0.015973605 -0.03233978 -0.04499481
-0.033822127 -0.06106446 -0.02675768 0.024944551 -0.026941307 0.02740521 0.008471832 -0.0056932718
-0.015439384 -0.039951116 0.0192445 0.0078076124 0.022243544 -0.005468473 -0.021698155 0.054300733
-0.026785426 0.028790765 -0.04920868 0.0322636 -0.025461413 0.0065393075 -0.045144267 -0.036606863
0.055312596 0.0051100627 -0.058961153 -0.026579365 -0.008441694 -0.0051599443 -0.057678305 0.052475475

fc2.bias f4 [128]
00000000: 4cdf b5bc c758 aa3c f122 7ebd d848 1c3d
00000010: cc49 b5bc ac8f 2e3c ea4f 483c dacd 683d
00000020: 6119 35bb 3d2b 423d 1cff 8ebc b816 ae3c
00000030: a0e6 adb9 22aa 443d f49a d73c a904 f8bc
00000040: 6be4 dabc 21f4 683d 16fd 40bd a0f0 8c3b
00000050: 198d 6dbc 2da1 2e3d 7631 df3c 6047 263d
00000060: 8ee7 15bd 1fec 413d d7fa 5b3c a480 ad3b
00000070: dd77 e939 bbd2 dcbc e3bb 6bbd 73a6 78bc
00000080: f055 65bd 9a00 f03c 8d38 1b3c 9cc5 63bc
00000090: 60c8 3d3d b76f 2e3d 2410 a5bc 1d6b bcbc
000000a0: b4bc 53bd 53f9 293c 8cd3 99bc f20d 5d3d
000000b0: a92b 0a3d f81b 463c 556b 773d ec00 92bc
000000c0: d194 81bb 0db8 e6bc 381b 86bc 553e debc
000000d0: 2b07 f63c 003e 4c3d 904d ed3c 90ec 693d
000000e0: 6760 253d b035 f93c bf86 e43c 304b 16bc
000000f0: a800 403d 8851 0abd f0c8 d0bc bf47 283d
00000100: 4060 64bd 966b 7a3d edbb 16bd a8ab 443c
00000110: 5408 2a3d e2c5 9fba 1cae e23a 5ed2 0b3d
00000120: 6506 1bbd f122 0fbd 32b6 86bc cb5e 40bb
00000130: daef 0c3d 8256 56bd 82e7 2abd c29b f73c
00000140: 0022 10bd 6bde 4cbd c034 383c 9bb1 4fbb
00000150: f9a3 503d efcb 803c f4b3 543d 04f4 7ebd
00000160: b55d 453d c671 253d 5a9b 643c c049 4ebd
00000170: 70f1 293d 9a5c 46bd ab6e 76bd 0aa2 eb3c
00000180: d032 8ebb 50e7 62bd dc7c 5abd ce50 5bbd
00000190: 0f8c c93c 8baa 94bc a4c0 1fbd 64dd 023d
000001a0: 1f23 30bd 291e 2bbd 0bc1 1c3d 612f 143d
000001b0: c28b cbbb a8cf 933c 77d7 ce3c b410 083d
000001c0: cb31 c7b9 645b 77bc 1119 303d 9610 cf3c
000001d0: fa9c 71bd af78 d53a 591c 1dbd df60 a93b
000001e0: d241 ec3c 2449 c93c a013 533d ee04 c4bc
000001f0: 61a3 5abd 8685 3b3d 6fee dbbc df40 01bc
-0.022201203 0.020794285 -0.06204504 0.038155407 -0.022129916 0.010654371 0.012226084 0.05683694
-0.0027633535 0.047404516 -0.01745563 0.021251068 -0.0003316896 0.048013814 0.026319005 -0.03027566
-0.026720246 0.056873444 -0.04711636 0.0043011457 -0.014498972 0.042634178 0.027245265 0.040595412
-0.03659778 0.047344323 0.013426504 0.005294876 0.00044530528 -0.026955953 -0.05755223 -0.015176403
-0.05599016 0.029297162 0.009473932 -0.013902094 0.04633367 0.04258701 -0.020149298 -0.023000294
-0.051693633 0.010374385 -0.018777631 0.053968377 0.033733044 0.012091629 0.060405094 -0.017822705
-0.003954508 -0.028163934 -0.0163704 -0.027129332 0.030032715 0.049863815 0.028967649 0.05711037
0.04037514 0.030421108 0.027896283 -0.0091732 0.046875626 -0.03376916 -0.02548644 0.041084047
-0.055755854 0.06113776 -0.036800314 0.012003817 0.04151185 -0.0012189711 0.001729432 0.03413617
-0.037847895 -0.034945432 -0.0164443 -0.0029353376 0.034408428 -0.052328594 -0.04172469 0.030225638
-0.035188675 -0.0500168 0.011243045 -0.0031691554 0.050937627 0.015722243 0.05192943 -0.06224443
0.04818507 0.040391706 0.013953054 -0.050363302 0.04149002 -0.048428155 -0.060164135 0.02876379
-0.0043395534 -0.055396378 -0.05334173 -0.05354386 0.024602918 -0.018147727 -0.039002076 0.031949416
-0.043002244 -0.04177681 0.038270038 0.036177997 -0.006211729 0.018043354 0.025249226 0.033219054
-0.00037993336 -0.015097473 0.042992655 0.025276463 -0.058987595 0.0016286577 -0.038357113 0.0051690186
0.02883998 0.024571009 0.051532388 -0.023928132 -0.053378467 0.045781635 -0.026847092 -0.007889002

fc3.weight f4 [2, 128]
00000000: 18a2 67bc c86f abbd 2af9 293d baa9 6bbc
00000010: 4861 093c 24a4 9a3c d0e0 aebb 50ec 53bc
00000020: 3059 393c 1714 9bbc a9c1 9d3d 36f3 07bd
00000030: 63f2 753d 8881 c03d ecca 16bd a6c1 d43c
00000040: 6d55 7b3d f795 c63c 50d1 d43b d1f3 9d3d
00000050: 6470 333d 7b09 dfbc 0a4e 4fbd 8c77 6cbd
00000060: 541a 9dbc aa8e ec3b 3785 fcbc f7d9 493d
00000070: b6f8 d1bd ee39 fbbc dd75 88bc 86fe 743d
00000080: 6c5d 903d 43ea cf3c 8f63 e13c 7751 803d
00000090: 3d33 cabd 3f0b 503d 617f 16bd 46b1 5a3b
000000a0: 9f3f 143d 53ab 8abd 2d1e 193d 7a0f 163d
000000b0: 0a4a 61bd e6f4 373d f885 a2bc 0fb9 73bc
000000c0: 25fc edbc cca1 24bd c763 bcbd d832 ac3d
000000d0: 68e1 683d 95ae 94bd 348c 66bd 5a21 823c
000000e0: bdf6 6bbd 6094 4d3c 9a53 2dbd fceb 893d
000000f0: a737 39bc 4f0a 95bc 7d6d 843c 7135 33bd
00000100: 33d1 6d3c 1c0d 98bc aab9 d0bc e017 b23c
00000110: 2031 a1bc a0d2 fdbc 4e4b 6f3d 69cf babd
00000120: 9b9f 10bc 6497 abbb 1c4c 393d 3e00 64bc
00000130: cbfe 19bd 2092 583b 5963 56bd 997f 713d
00000140: c089 6ebc 1f80 16bd 84c2 3ebd 7fbf 593d
00000150: 9b1b 813d f1f7 54bd 8a33 573d 50cc 8abc
00000160: 02e6 9dbd 6fb5 793d ff55 b0bc ecf7 acbd
00000170: 52db 6abd 6b16 8bbd 16a2 463c 4cd6 0239
00000180: d258 37bd af7e 3fbd 4f91 f2bb 9060 0ebc
00000190: 91a5 0a3d d377 a3bd d657 d6bc be31 8e3d
000001a0: 8daa a1bd fc52 b23c 29d2 11bc 14ce b73d
000001b0: 88fc 6f3d a0e6 acbc af7d 6cbd 2cd1 74bd
000001c0: 3025 8cbd a915 a6bd 7b2b e53c 9b9c 60bd
000001d0: 7d29 c4bc f308 01bd 8292 393d a373 fabb
000001e0: a56f 99bd c49d 86bd 4c52 8cbd 3755 ac3d
000001f0: 154b bdbc 93f2 a63d fba1 243d a3fe 123d
00000200: 4ab9 673d b509 4fbc 3ce4 773d 6cee 963c
00000210: de9d 62bd aacf 89bd 46ce a5bd b042 a5bc
00000220: 1e36 c2bd cb0e 133d 3e3f 94bd c2e1 5cbd
00000230: eefb c1bd 167e 9dbd d2fb bdbd 09d8 39bb
00000240: 42eb 3bbd 5e30 8c3d 8cb1 943c 8ac1 4cbd
00000250: f17d b0bd 36af 33bc cfe8 4fbd 60c9 d5bc
00000260: f3bf 843d 2f7c 8b3d 1ca1 4b3d d49a 81bd
00000270: cddc b13c 18a9 0abd 95a1 e0bc 5449 813c
00000280: 5d34 a83d 969e b2bd 63fc 4a3d 022a 7dbd
00000290: c993 dd3c 2aac f2ba b458 4abd b317 6fbc
000002a0: 0372 65bc b32c 33bd 62dc 9abb 1188 863c
000002b0: 78e0 a33d a9dc 903d e0ae 15bd 5d2a 063d
000002c0: b25d 023b 966e 903d aac8 683d 485a 5a3d
000002d0: b490 923d 5248 92bd aa28 87bd da40 ae3d
000002e0: 3db1 c7bc 79b8 883d 8a86 443d b50e 123d
000002f0: 422a 83bd a42d 1ebd 1dc5 dc3c 8887 abbd
00000300: b512 18bd 3918 1f3d 6c4e c23c 682e 203c
00000310: 5fd8 4dbd 03cb 7a3d 144b 94bd 9729 42bd
00000320: 35a7 963c ef9e f8bc 000e 50bd 1f22 ad3d
00000330: 3dea 16bd 6c0c a1bd 9f8f c23c 6a56 99bd
00000340: 10c9 abbc d5c1 fd3c 1728 aabd 07ee 19bb
00000350: 67ea db3c c9c3 b43c de61 afbc ea1b 4a3d
00000360: 2409 42bd 6d5c 873c e38a 323c d1fa d23c
00000370: 1887 9e3c 5311 92bd 47b7 c13b a5f2 f6bc
00000380: 78ec aa3c 9cda 74bd c50f 9b3d 6053 0a3c
00000390: 2959 3c3c c305 65bd 295e 73bd 44ad 4c3c
000003a0: 06fc cfbc 5649 c3bd 9de1 e33b e5ed b23c
000003b0: 6b51 1d3d eee0 5ebd 2bbc c4bc 9754 ba3d
000003c0: ddcd 20bd 957b a23c 6ad4 cb3b e8ad 69bd
000003d0: 219a af3c 8549 133d a304 a0bd 2449 21bd
000003e0: 848e eebc ab15 61bd 13d4 ed3c 8e1e cc3c
000003f0: d799 aabc 5875 303c 2103 5a3d 053a 433d
-0.014137767 -0.0837093 0.041497387 -0.014383728 0.00838501 0.018877096 -0.0053368583 -0.012934759
0.011312768 -0.018930478 0.07702953 -0.03319093 0.06004561 0.09399706 -0.036814615 0.025971245
0.061360765 0.02424143 0.0064946786 0.0771252 0.043808356 -0.0272262 -0.050611533 -0.057731196
-0.019177593 0.0072191553 -0.03082524 0.049280133 -0.10252516 -0.030667271 -0.016657764 0.059813045
0.07049069 0.02538026 0.027513294 0.06265538 -0.09873054 0.050791975 -0.03674257 0.0033369823
0.036193486 -0.06770959 0.037382293 0.036635853 -0.05500225 0.044911288 -0.019839272 -0.014875664
-0.029050896 -0.040193364 -0.091987185 0.08408135 0.05685559 -0.072598614 -0.056286052 0.015885044
-0.057608355 0.012547582 -0.042316057 0.067344636 -0.011304772 -0.018193392 0.01616549 -0.043752138
0.014515209 -0.018560939 -0.025479157 0.0217399 -0.019676745 -0.030984223 0.058421426 -0.091215916
-0.008827115 -0.005236553 0.0452386 -0.013916073 -0.037596505 0.0033046082 -0.05234084 0.058959577
-0.014559209 -0.03674328 -0.046572223 0.05316114 0.063040935 -0.051994268 0.052539386 -0.016943127
-0.07709886 0.060964044 -0.021525381 -0.08445725 -0.057338066 -0.06791385 0.012123605 0.00012477598
-0.04476244 -0.046751674 -0.007402576 -0.0086900145 0.033849303 -0.07981839 -0.02616493 0.06943081
-0.07893858 0.021768086 -0.008900204 0.08974853 0.058590442 -0.021106064 -0.05773705 -0.059769794
-0.068430305 -0.081096 0.027974835 -0.05483685 -0.023945564 -0.031502675 0.045305736 -0.0076431795
-0.07491998 -0.0657306 -0.068516344 0.08414691 -0.023107091 0.08151736 0.04019354 0.03588737
0.05657319 -0.012636592 0.060520396 0.018424235 -0.055326335 -0.06729062 -0.08095984 -0.0201734
-0.09482978 0.03590278 -0.07238625 -0.053926237 -0.0947188 -0.076900646 -0.092765465 -0.0028357527
-0.045878656 0.06845163 0.018151067 -0.04998926 -0.086177714 -0.0109670665 -0.050759133 -0.026097
0.06481924 0.068107955 0.049714193 -0.06328359 0.021711731 -0.033852667 -0.027420798 0.015782036
0.082131125 -0.08721654 0.0495571 -0.06180764 0.027048009 -0.0018514444 -0.049401 -0.014593053
-0.014004233 -0.0437438 -0.0047259787 0.016422303 0.080017984 0.070733376 -0.036543727 0.032755245
0.0019892273 0.070523426 0.056831993 0.053308755 0.07156506 -0.071427 -0.06599553 0.08508463
-0.024376506 0.0667581 0.04797987 0.035658557 -0.064045444 -0.038617745 0.02694946 -0.0837546
-0.037127215 0.03884146 0.023719035 0.009776689 -0.050255176 0.061228763 -0.072408825 -0.047402944
0.018390277 -0.030349223 -0.0507946 0.08453774 -0.03684448 -0.078636974 0.023750124 -0.07487185
-0.020969898 0.030976215 -0.08308428 -0.0023487823 0.02684517 0.022066014 -0.021408971 0.049343027
-0.047372 0.016523564 0.010897371 0.025754364 0.019351527 -0.071322106 0.005911741 -0.030144999
0.02086471 -0.059778795 0.07571367 0.00844273 0.011495867 -0.055913698 -0.05941597 0.012492482
-0.025388729 -0.09535472 0.0069543854 0.021841953 0.038407724 -0.05441373 -0.024015507 0.090981655
-0.039258827 0.01983432 0.00622039 -0.057050616 0.0214358 0.035958786 -0.078133844 -0.039376393
-0.029120691 -0.054952305 0.029031789 0.024916913 -0.02082531 0.010770164 0.05322564 0.047662754

fc3.bias f4 [2]
00000000: 176b 7dbc d06a a03b
-0.015467427 0.0048955455

loss_fn.weight f4 [2]
00000000: cdcc cc3e 9a99 193f
0.4 0.6
