code/result/DNN_test.pt (torch, 335887 bytes, 7 tensors)

fc1.weight f4 [256, 172]
000000 45 1d 14 3d 18 37 32 3c fc 4a 05 bd d3 f9 21 bd
       0.036160726 0.010877393 -0.032542214 -0.03954489
000010 ab 52 64 3d bc 95 57 bc 51 61 75 3d 2e a2 36 bd
       0.0557429 -0.013158258 0.05990726 -0.04458826
000020 2b 91 b7 39 f1 ef d0 bc b6 7d 91 bd 8d 9d c3 3c
       0.0003501264 -0.025505038 -0.071040556 0.023878837
000030 00 45 7e bd 07 29 b4 bb 0d a4 af 3c c2 02 b7 bd
       -0.062077522 -0.005498055 0.02144053 -0.08936073
000040 97 70 24 3d 79 2c 00 3e 78 4a 71 bc a0 08 57 3d
       0.040146437 0.12516965 -0.014727227 0.05249846
000050 38 54 82 bc 3f 69 3f bd 6d 57 b1 bc d6 8d 08 3d
       -0.0159093 -0.04673123 -0.021648133 0.03333839
000060 48 81 35 3d cb a6 58 3d e7 ee 13 bd 76 83 58 3d
       0.044312745 0.05289344 -0.036116507 0.052859746
000070 eb 5d ff 3c 88 96 73 3d 80 88 ca 3b cc c0 3b bd
       0.031172713 0.05946973 0.006180823 -0.045838162
000080 a8 b6 3e bd 63 48 30 3d ba 43 5f bc 58 9e 94 3d
       -0.046560913 0.043037783 -0.013626987 0.07256764
000090 95 f4 e1 bc 33 a1 17 3d 10 67 1f bb 6c c3 cb 3c
       -0.027582446 0.037018966 -0.0024322905 0.024873458
0000a0 9b 25 20 3d 29 c8 72 3d 52 c7 14 bd c9 b7 e8 3c
       0.039098363 0.05927292 -0.0363229 0.028407948
0000b0 ae 3e 0c bd b2 3a 0c bd 0a 9a 22 3d 9a a5 be bc
       -0.034239464 -0.034235664 0.039697684 -0.023272324
0000c0 76 4f 7b bd c4 ff 68 3d 8d ca 74 3d 4d d0 35 3c
       -0.061355077 0.056884542 0.05976348 0.011097026
0000d0 1a c1 4e bc 6c 1c e7 3b 08 4f 9c bd 22 ff 86 3d
       -0.012619281 0.0070529487 -0.076322615 0.065916315
0000e0 91 e3 b8 bc 78 81 90 bc 6a 50 80 bc c0 e7 2f bc
       -0.02256945 -0.01763986 -0.015663344 -0.010736406
0000f0 04 b5 6c bc 0c 9c 83 bd 9c 94 a4 3b 04 78 8d bd
       -0.014447454 -0.06426248 0.0050225984 -0.06907657
000100 df 6f 9b bd b3 65 4c bd 13 b4 6a bc b1 2d 38 bd
       -0.07589697 -0.049901675 -0.01432516 -0.04496545
000110 2c 86 98 3d 93 de b6 bc 38 63 80 3d 21 7c 5e bc
       0.07447466 -0.022322929 0.062689245 -0.013579399
000120 3f 18 07 bd 63 bf 28 bc 60 3e 83 3d 4b 0e 24 bd
       -0.032982107 -0.010299536 0.064083815 -0.040052693
000130 a0 ba e0 bc e9 cb be 3c e9 85 a4 bb c3 52 50 3d
       -0.02743274 0.023290591 -0.005020846 0.050860178
000140 27 f0 33 3d bf 04 ab 3a d1 04 5c bd 7a e8 05 bd
       0.0439302 0.0013047679 -0.05371553 -0.03269241
000150 e6 49 32 bd 42 48 8c 3d 9d d7 5a 3c c4 fc aa 3c
       -0.043527506 0.068497196 0.01335707 0.020872481
000160 68 a0 24 bb 5e 37 3c 3d aa 26 d2 3b 0a cd 25 3d
       -0.0025120024 0.04595124 0.0064133005 0.040478744
000170 8f 86 f8 bc 88 54 65 3c 31 c9 78 3c f1 21 30 3d
       -0.0303376 0.013997205 0.0151846865 0.04300112
000180 0b cf 91 3d 17 5b 1a bd f7 bb 2d 3d a8 02 3e bd
       0.071195684 -0.037684526 0.042415585 -0.046389252
000190 ca 7a c6 bc 6e df a1 bc bc 8f 80 3d bf 52 c7 bc
       -0.024228472 -0.01975986 0.06277415 -0.024331449
0001a0 34 d1 27 3d 01 31 91 bd 22 9c 83 bc ba d6 5d 3d
       0.040970996 -0.07089425 -0.01606566 0.054159857
0001b0 6f 73 d0 3c d3 81 70 3c 86 96 65 bd 2d 7e db bc
       0.025445668 0.01467939 -0.056051753 -0.026793564
0001c0 3d ce 92 3d ee 18 6c bd 61 8f 59 3b b3 60 bb 3c
       0.07168243 -0.057640962 0.0033197033 0.022873258
0001d0 9d 2d cc bc 26 5f 9d bc c0 f5 15 bd b7 70 03 bd
       -0.024924094 -0.01921041 -0.03661132 -0.032089915
0001e0 94 a7 b7 bb 62 cc c6 bc 90 8c 89 bd c4 ab 6b 3d
       -0.0056046937 -0.02426738 -0.06716263 0.057536855
0001f0 fb d1 78 bd 9a 6c 9e bd d0 a2 9a 3c d3 bf 98 bd
       -0.060747128 -0.07735558 0.018876463 -0.074584626
000200 75 48 05 3d 72 1e 20 bd 97 9d cd bc 55 6c 6d 3d
       0.032539804 -0.039091535 -0.025099559 0.05796464
000210 f8 5b 97 bd a9 28 64 3b 19 84 3a bd a1 37 51 3d
       -0.073905885 0.0034814274 -0.045536134 0.051078442
000220 95 b1 81 bd 13 03 62 bd 9b 9d 57 bc d7 fc 29 bd
       -0.06332699 -0.055178713 -0.013160135 -0.041500892
000230 11 de 6d 3b 90 69 3d bd 38 60 9a bc 50 24 c2 bc
       0.0036295692 -0.04624325 -0.018844709 -0.023698956
000240 a2 99 dc bc 15 e3 02 3d ef 57 67 bd 27 c0 65 3d
       -0.026928727 0.031954844 -0.056480344 0.056091454
000250 7f 33 77 3d f0 2a 73 bd b5 84 5e 3a c3 02 ce 3d
       0.060351845 -0.05936712 0.0008488403 0.100591205
000260 da d5 bf 3b 18 4f d1 bc 6f ef 4b 3d fe f1 6a bd
       0.0058543505 -0.02555041 0.04978889 -0.057359688
000270 03 31 87 3d 60 b3 09 3d b0 37 86 3d 8b 2c 85 bd
       0.06601145 0.03361833 0.0655359 -0.065026365
000280 96 65 7c 3d ba 78 7e bc ce 8f 07 3d 24 2e 62 3b
       0.061620317 -0.015531713 0.033096127 0.0034512365
000290 20 6a 9b bd 09 67 6b 3d 96 d2 a0 bc b5 c3 57 3d
       -0.07588601 0.05747131 -0.019631665 0.052676875
0002a0 5c ad ad bc a5 df 67 bd 71 57 c6 bd 66 ee 37 3d
       -0.021200828 -0.05660977 -0.09684647 0.04490509
0002b0 64 0b 46 bd e5 b4 5b bd f8 38 a8 3c 9d b8 71 bd
       -0.048350707 -0.05363931 0.020534977 -0.05901395
0002c0 3c 71 82 3d 6e 23 09 bd 28 3f bd 3c f2 0a 01 bd
       0.06369254 -0.033481054 0.023101404 -0.03150458
0002d0 94 79 af 3c 2e 0c 33 3d d2 14 97 3d aa 60 89 bd
       0.021420278 0.043712787 0.07377018 -0.0670789
0002e0 20 57 dd bb 30 41 4c bd c4 15 95 bd 92 85 98 3d
       -0.006754771 -0.049866855 -0.07279542 0.074473515
0002f0 de 4e c0 bc cc 4f c4 3c 8e 43 40 bd 56 37 f0 bc
       -0.023475107 0.023963831 -0.046939425 -0.029323261
000300 1c f3 6b 3d 70 6c 2b 3d 96 77 84 bd a4 c8 15 bd
       0.057604894 0.04185146 -0.06468122 -0.0365683
000310 d0 ba c9 3b c0 30 30 bd 30 41 d2 3b 4c 42 7a 3d
       0.006156303 -0.04301524 0.0064164624 0.061098382
000320 bb 16 61 bd c0 ad c7 ba 30 4e 5f bc 64 a4 3c 3d
       -0.054953318 -0.0015234277 -0.013629481 0.046055213
000330 5b 92 94 bd 1e e9 10 bd 46 7d 81 3d ea 70 e4 bc
       -0.072544776 -0.035378568 0.06322722 -0.027885873
000340 9a a9 8f 3d 80 04 fc 3c 18 e2 92 3c 50 dc b5 3c
       0.07014771 0.030763865 0.017930076 0.02219978
000350 67 c4 20 bd d3 66 8a bd 7e fb 32 bd f8 22 8d 3c
       -0.039249804 -0.067578934 -0.043696873 0.017228588
000360 fe 6f 8a bd 64 54 8f bd 9e 35 93 3d fc b9 05 bd
       -0.06759642 -0.06998518 0.07187961 -0.03264807
000370 70 98 91 3d d6 c4 51 bd d0 51 85 3d b4 54 79 bc
       0.07109153 -0.051213108 0.06509745 -0.015217949
000380 c4 dd 4b 3d ec 7c 60 3d 3c 47 67 bc 96 e5 99 bc
       0.04977204 0.054806635 -0.014116105 -0.018786233
000390 90 0b 91 bb 7a a9 66 bd f8 17 57 3d 58 63 97 3d
       -0.004426427 -0.05631397 0.052513093 0.07391995
0003a0 76 b6 53 bd c2 f6 cf bc 78 c6 1d bc a8 04 39 3c
       -0.05168768 -0.025386218 -0.009629838 0.011292614
0003b0 8e 9c 26 3d f6 5a 2e 3d 18 41 ae 3c ae 49 e9 bc
       0.040676646 0.042567216 0.021271273 -0.028477516
0003c0 c8 a1 0f 3d 3f 5f 1d bd 18 29 49 3c 3e 03 75 bd
       0.035066396 -0.038420912 0.012277864 -0.059817545
0003d0 98 f7 2b bd 1e ad ef bc 04 b4 2d 3d b0 56 8e 3c
       -0.04198417 -0.029257353 0.042408004 0.01737532
0003e0 a0 28 3a 3d f4 0a ac 3c a6 0c 3e 3d ea 75 14 bd
       0.0454489 0.021001317 0.04639878 -0.036245264
0003f0 c4 8c d2 3c 98 c1 01 bc e8 91 f3 bc 80 5c ba bb
       0.025701888 -0.0079196915 -0.02973266 -0.0056872964

fc1.bias f4 [256]
000000 40 f6 9c bd d0 4d c5 bb 15 96 35 3d 05 e5 32 bd
       -0.07664156 -0.006021239 0.044332583 -0.04367544
000010 cb f5 38 3d 68 a2 30 bc f8 00 50 bd d6 61 28 3d
       0.04515628 -0.010780908 -0.050782174 0.04110893
000020 87 48 14 3d f3 c6 c0 bb 6c 14 8f bd fa cd 06 3d
       0.03620198 -0.0058830916 -0.06986317 0.03291128
000030 92 6b 91 bd 1c 12 1a 3d df df 4e bd dc fe 93 bc
       -0.071005955 0.037614927 -0.05050647 -0.018065862
000040 47 2d 5c 3d ca 34 3f 3d ad cc 2d bd 2c ed 86 3d
       0.053754117 0.046681203 -0.042431522 0.06588206
000050 e6 0f 90 bd dd 30 5b 3d c0 fe f6 3c fd 91 66 3d
       -0.070342824 0.053513397 0.030150771 0.05629157
000060 91 85 98 3b ee 85 8e 3d 2e 28 f4 bc b5 9f 01 3d
       0.004654594 0.06959139 -0.029804315 0.03164645
000070 f5 bc 73 bc 31 74 31 bd 36 e8 98 bd f4 e8 66 3d
       -0.014876594 -0.0433237 -0.07466166 0.056374505
000080 b9 d3 00 bc 81 54 51 bd 19 1d 48 bd 88 15 58 3d
       -0.007862979 -0.05110598 -0.048855875 0.05275491
000090 59 6f 7a bb 14 d3 dd 3c 58 21 3a bc 4a 06 24 3d
       -0.003821334 0.027078189 -0.011360489 0.04004506
0000a0 cf f3 f6 3c 00 6a 32 3c ea d2 3d 39 2f 0f ec bc
       0.030145554 0.01088953 0.00018103016 -0.028815834
0000b0 59 cb 09 bd 14 80 cf bc 30 f1 62 3d 2a c8 8a 3b
       -0.033641193 -0.025329627 0.055405796 0.004235287
0000c0 ce cc 9c bc 78 06 81 3d 46 75 52 3d 5b 14 e6 bc
       -0.019140627 0.06300062 0.051381372 -0.028085878
0000d0 41 56 03 3c c5 79 83 bd c8 d7 49 3d 2b f6 5e bb
       0.00801617 -0.0641971 0.04927805 -0.003402124
0000e0 a3 d2 bb bc 20 f7 ba bc 89 4a 1d 3d 30 c9 4d bd
       -0.022927588 -0.022822917 0.03840116 -0.050240695
0000f0 3f ea 94 bd 69 ef d7 bc 2a 9f 14 3c 76 33 35 3d
       -0.072712414 -0.026359277 0.009071151 0.04423853
000100 a7 e0 81 3d 42 b2 66 3d 9b 56 8f bd f3 43 5b 3c
       0.06341677 0.056322344 -0.069989406 0.0133829
000110 1d fd 8e 3c 60 b9 8a 3c fa f5 b3 bc a7 ab 70 3d
       0.017454678 0.016934097 -0.021967877 0.05875745
000120 88 a1 08 bc d9 b5 1e bc e8 9c 97 bd 18 f1 76 3d
       -0.008339293 -0.009686911 -0.07402974 0.06028852
000130 9a de 8d 3a ae 83 4c bd a0 b2 0f 3b 10 07 55 bd
       0.0010823787 -0.049930267 0.0021926537 -0.05200869
000140 f4 88 79 3d c4 39 bb bb 12 88 0b bc 3a e8 26 bd
       0.060921624 -0.0057136733 -0.008516328 -0.040748812
000150 29 0d 0b bd ad 6f 06 bd ef 04 84 bd 56 96 4c 3d
       -0.033948097 -0.032821346 -0.064462535 0.04994806
000160 6e 91 f3 bc dc e9 f0 3c b2 20 65 bd 0b 5c 02 bd
       -0.029732432 0.029408388 -0.055939384 -0.03182606
000170 92 3f 80 3d 76 82 75 3d de 2b 9a 3d 88 89 8b 3c
       0.06262125 0.05993887 0.07527898 0.017033353
000180 74 41 87 3d 99 9f 12 bd 8c b8 bf bc 92 a9 19 bd
       0.06604281 -0.035796735 -0.023403428 -0.03751523
000190 e4 f1 0c 3d ae d7 60 bd 38 c8 6a 3c 5c 6a 9b bd
       0.034410372 -0.05489319 0.014329962 -0.07588646
0001a0 c2 c9 48 3d 7b 89 13 bd 54 1e 87 3b 54 70 fd 3c
       0.049020536 -0.036019783 0.0041234884 0.030937351
0001b0 e7 d7 0c bd 1d d4 83 3d 50 ef 5a bc 22 04 4b bd
       -0.034385588 0.06436942 -0.013362721 -0.04956449
0001c0 a9 b1 bc bc d8 d1 14 bc 10 6e 9a bc aa 87 8b bd
       -0.023033934 -0.009083234 -0.01885131 -0.06812985
0001d0 18 aa 41 bd a8 6e ca 3b d7 81 8c 3c 3f da 11 bd
       -0.047281355 0.006177742 0.017151756 -0.035608526
0001e0 74 f8 3c bd 2f d0 55 3d fb 29 39 bd bc c6 86 bc
       -0.04613538 0.052200492 -0.04520605 -0.016452186
0001f0 2e 0a 8e 3d f9 cf 1b bd 19 cf 88 3c bd aa f8 bb
       0.06935535 -0.038040135 0.016700314 -0.007588713
000200 18 1f 92 3d 0d 0d 2e 3d 63 97 f7 bb 7c ec 02 bd
       0.07134837 0.042492915 -0.0075558885 -0.03196381
000210 27 07 05 bc df 7c 02 bd 37 66 cb 3c dc b2 73 3d
       -0.008119381 -0.031857368 0.024829013 0.059496745
000220 9e 10 51 bd c7 f1 ee bc d8 c6 6a 3d 7f 23 90 bd
       -0.051041238 -0.029168023 0.05731854 -0.0703802
000230 6a 9c 7c bd dd 3f 6c bd bd 88 7b 3d be e8 5c 3c
       -0.061672606 -0.057678092 0.0614097 0.013483224
000240 f8 37 81 bd 29 d9 02 b7 05 28 71 3d 41 0c 27 3d
       -0.06309503 -7.799165e-06 0.058876056 0.04078317
000250 f9 02 17 bc 05 8d 10 bd 48 a1 69 bc 22 f9 82 3d
       -0.009217017 -0.035290737 -0.014259644 0.063951746
000260 dc 64 61 3c b9 ad 58 3d 58 aa b6 3c d4 ff d5 bc
       0.013756957 0.05290005 0.022298023 -0.026122965
000270 14 24 83 bd bf ee 57 3d d4 97 62 3d 98 22 42 bc
       -0.06403366 0.05271792 0.055320576 -0.011849068
000280 2a 95 b0 3b 52 9c 64 bd dc fa 99 bd 35 de 94 bc
       0.0053888755 -0.05581314 -0.07518551 -0.018172363
000290 59 cc 4a bc 7d f9 e5 3c af e0 1e 3c b6 81 f1 3c
       -0.012377822 0.028073067 0.009697123 0.029480796
0002a0 ba f2 71 bd c8 46 7a 3d 4e 29 83 bd ad f0 85 bd
       -0.059069373 0.06110266 -0.064043626 -0.06540046
0002b0 47 44 81 bd 7c 75 76 3d 0d c5 72 3d 8a 93 8c bd
       -0.06311851 0.060170636 0.059269954 -0.06864078
0002c0 45 f7 36 bd 01 6a e1 3b f4 76 5b 3d 6e e6 86 bd
       -0.04466941 0.0068790917 0.05358024 -0.0658692
0002d0 40 dd 67 bd dd 42 77 3c b0 08 82 3d 6c 1c 4f 3d
       -0.056607485 0.015091625 0.06349313 0.050564215
0002e0 e5 8f 95 3c 38 ed 01 bd b7 68 80 3d fb 36 98 3d
       0.01825709 -0.03172037 0.06269973 0.07432362
0002f0 dc 6c f5 bc 1d 1c 56 3d 05 66 1a bd ec 62 6e 3d
       -0.029959135 0.052272905 -0.03769495 0.058199808
000300 23 6c 8a bd cc 7c 2d 3d d4 93 47 3d 4f 2c 70 bd
       -0.06758907 0.042355344 0.048724964 -0.058636006
000310 20 42 97 bc bb 96 6c bc 94 4b 5f 3d 15 07 1d 3d
       -0.018464148 -0.014440234 0.054515436 0.038336832
000320 a2 61 83 bd e7 7f a5 bb 9a e4 92 3d c4 ad 9a 3d
       -0.06415106 -0.0050506475 0.071725085 0.075526744
000330 af 8f 7f 3d b5 30 e7 bc 60 72 00 bd d0 c4 f6 bb
       0.062392887 -0.028221468 -0.031359076 -0.007530786
000340 35 62 07 bd 27 cc 8b 3d e0 4d 54 bd 9d 7d 02 bd
       -0.033052642 0.06826048 -0.05183208 -0.031858075
000350 09 6c 97 bc 51 0b 71 3d 86 08 5e 3d 68 0c a6 bc
       -0.018484132 0.058848683 0.054207347 -0.020269588
000360 11 db 08 3d 28 e0 5f 3c 26 03 2b 3d 34 4f 7a bc
       0.033412043 0.013664283 0.04175105 -0.015277673
000370 62 20 80 bb 81 cf 50 3d 90 f3 d0 3b 5e 1f fc 3c
       -0.0039101103 0.05097914 0.006376691 0.030776676
000380 86 54 17 3d 17 9a 61 bd 87 19 8b 3d cb 14 5a bd
       0.036945842 -0.055078592 0.06791978 -0.053242486
000390 0f 98 cb bc 45 75 85 bc e2 6a bd bc bb 6e 90 3d
       -0.02485278 -0.01629127 -0.023122255 0.0705237
0003a0 0b b0 9b 3d b6 17 cb bc 6e 3f 9a bd 78 f0 78 bc
       0.07601937 -0.02479158 -0.075316295 -0.015194051
0003b0 f2 42 04 3d ca 4b 42 bd 52 64 81 3d 42 81 8f 3d
       0.032290407 -0.04743556 0.06317963 0.07007076
0003c0 9e 30 73 39 ed e6 01 bd 0b 05 94 bd 82 10 13 3d
       0.00023192397 -0.03171437 -0.07227524 0.035904415
0003d0 1b 49 4c bd 69 88 90 3d 30 1f 35 bc 11 c5 2a 3d
       -0.049874406 0.07057268 -0.011054799 0.041691843
0003e0 50 64 88 3d 24 e5 a9 3c 9f 9b e7 bc 3e 4a 8f bd
       0.06659758 0.020739146 -0.028272448 -0.069965824
0003f0 ac ef fb bc 95 49 b5 bc e6 12 c8 bb c5 e6 36 bd
       -0.030753933 -0.022129813 -0.0061057685 -0.044653673

fc2.weight f4 [128, 256]
000000 de 25 23 bd 08 44 64 3c 90 b6 ed 3b 00 18 c8 3b
       -0.039831035 0.013932236 0.007254429 0.0061063766
000010 e8 97 14 bd cc 6d 30 3d 9a 5d 1e bd 16 64 07 bd
       -0.03627768 0.04307346 -0.038663484 -0.033054434
000020 54 4c f1 3c 80 c4 ff 3a 38 a3 2f bd f0 4f f8 bc
       0.029455341 0.0019513518 -0.042880267 -0.030311555
000030 f8 63 1d bc 5e fd 38 bd 08 51 84 3c ae 83 0d 3d
       -0.009606354 -0.045163505 0.01615192 0.034549408
000040 40 6d e6 bc fc 47 68 3d a0 96 3b bb b0 d2 ac 3b
       -0.028128266 0.056709275 -0.0028623715 0.0052741393
000050 04 08 c5 3c 5a 5d 21 bd 5c 86 38 3d ec 79 4a bd
       0.024051674 -0.039395668 0.04505001 -0.04943268
000060 70 18 d1 3c e0 24 5e bd 7a 71 7f bd ae 91 1c bd
       0.025524348 -0.054234385 -0.06236408 -0.03822487
000070 e2 d3 33 bd 38 72 39 3d 28 ee 34 3c 48 da 27 bd
       -0.04390324 0.045274943 0.011043109 -0.040979654
000080 b8 d5 fb bc b0 cd 54 bd d0 80 3a bd 50 64 21 bc
       -0.030741557 -0.05195397 -0.045533 -0.0098505765
000090 e0 e4 59 3c a0 13 0a 3c 4a 60 36 3d 32 d4 69 bd
       0.013299197 0.0084275305 0.044525422 -0.05708713
0000a0 34 b7 84 3c 18 23 4c bc fe fd 39 3d d4 29 33 bd
       0.01620064 -0.012459539 0.04540824 -0.043741062
0000b0 52 86 40 3d 50 34 69 3c fc 38 92 3c 48 7b 7d bc
       0.047003098 0.014233664 0.017849438 -0.015471287
0000c0 ea 34 0e 3d 70 d0 0a 3c a0 93 7e bc 08 d8 db 3c
       0.03471843 0.008472547 -0.015538126 0.02683641
0000d0 bc 9a ac 3c dc 65 d9 bc 18 fc 25 bd 40 2e ed 3b
       0.021069877 -0.026537828 -0.04052362 0.0072381794
0000e0 64 57 ff 3c 04 25 b6 3c 80 c9 a1 3a b0 4b a3 bb
       0.0311696 0.022234447 0.0012343377 -0.004983388
0000f0 40 c3 f7 bb 40 f2 e0 bb 94 8f 34 bd e4 4c a8 bc
       -0.0075611174 -0.006864816 -0.04408224 -0.020544477
000100 e0 b8 92 3b 04 e0 d6 3c 90 1e 4b bc 6e 14 1f bd
       0.004477605 0.026229866 -0.012397423 -0.038837843
000110 28 38 b8 bc dc 15 8e bc 80 46 45 bd 9c be 49 bd
       -0.022487715 -0.017344408 -0.048162937 -0.049254045
000120 74 40 7f 3d e0 a1 47 bb 8a b7 34 3d 74 53 6f 3d
       0.062317327 -0.0030461475 0.04412035 0.058429196
000130 c0 41 06 bb b4 26 04 bd f4 f0 7b 3d 86 07 70 3d
       -0.0020485967 -0.032263473 0.061509088 0.058600925
000140 a8 1a d8 3c e0 1d 28 3c 70 7d d9 3b 80 9b 79 bb
       0.026379898 0.010261029 0.006637268 -0.003808707
000150 b0 bb 73 bc 66 76 38 bd 00 d2 e5 39 c8 0a 52 3c
       -0.014876291 -0.04503479 0.00043834746 0.012819953
000160 f6 06 17 bd aa f0 6c 3d e4 32 76 3d fc 34 22 3d
       -0.036871873 0.057846703 0.060107127 0.03960131
000170 24 46 e2 bc 54 a8 c3 bc 4a 18 07 bd 2e 1e 28 3d
       -0.027621336 -0.023883976 -0.03298215 0.041044407
000180 c4 21 61 3d b4 8a 48 bd ae d7 29 bd 70 fa d9 bc
       0.054963842 -0.048960403 -0.041465454 -0.026608676
000190 20 f7 36 bd 50 73 6a 3d 24 8c 67 3d a6 21 5f bd
       -0.04466927 0.057238877 0.056530133 -0.05447545
0001a0 64 43 13 3d d8 45 75 3d 28 f3 0f 3c ac 89 da 3c
       0.03595294 0.05988106 0.008786 0.026676975
0001b0 58 95 8b bc f8 7b 76 3c 92 78 09 bd 82 e8 31 3d
       -0.017038986 0.015044205 -0.03356225 0.043434627
0001c0 88 4c 28 bc e2 33 47 bd b0 78 9b 3b 50 b9 24 bc
       -0.010272153 -0.048633464 0.0047446117 -0.010053948
0001d0 c6 0f 70 bd 54 b2 04 bd bc a8 8c bc 6e 80 66 bd
       -0.058608793 -0.03239663 -0.017170303 -0.056274824
0001e0 30 f2 5e bc 52 76 41 3d 16 21 7a 3d 48 82 3d bc
       -0.013607547 0.04723198 0.06106671 -0.011566706
0001f0 e0 5f 75 3b 60 9c 13 3d 88 fd 3d 3d 10 dd f8 bb
       0.003744118 0.036037803 0.046384364 -0.007594712
000200 b6 8c 0b bd e0 a7 5f 3c f0 37 d8 3b 7c 17 20 3d
       -0.03406974 0.013650864 0.006598465 0.039084896
000210 70 40 bb bc 7e e4 42 bd 44 75 55 3d 72 21 0c bd
       -0.022857875 -0.04758119 0.052113786 -0.034211583
000220 c0 a1 69 bb 5e fb 2f bd 46 08 4d 3d 18 d0 b1 bc
       -0.003564939 -0.04296433 0.05005672 -0.021705672
000230 a8 42 0c 3d 5c 35 fd 3c 20 b8 e0 bb 38 90 f6 3c
       0.034243256 0.030909233 -0.006857887 0.030098066
000240 c4 71 3c 3d 54 a0 ef 3c 30 de 07 3d b8 18 74 3d
       0.046006933 0.029251255 0.03317088 0.059593886
000250 ec be 91 3c 40 29 09 bb a6 d9 78 bd 20 c0 0a 3b
       0.017791234 -0.0020929128 -0.06075444 0.0021171644
000260 40 7f 26 3c fe 2c 42 bd 40 fc bc bc 70 65 8a bb
       0.010162175 -0.04740619 -0.0230695 -0.004223518
000270 14 4c 64 3d 00 c4 2c bb 2c a7 a0 bc b8 37 6c 3c
       0.055736616 -0.0026361942 -0.019610964 0.014417581
000280 00 d3 07 bc ee 63 7d bd e0 f7 54 bc bc ff 7a bd
       -0.008290052 -0.06186288 -0.012998551 -0.061279044
000290 32 61 09 3d 70 8e ad 3c 84 e3 49 3d 02 e6 6a bd
       0.03353996 0.021186084 0.04928924 -0.05734826
0002a0 f8 af 8d bc d6 ec 03 bd 60 d3 3d 3b b8 be 84 3c
       -0.017295823 -0.032208286 0.00289651 0.016204223
0002b0 64 2b 45 3d 60 f2 9f bc 24 4c bd 3c fe 20 59 bd
       0.048137084 -0.019524753 0.023107596 -0.05300998
0002c0 30 15 05 bd dc 88 64 bd 9e cd 15 bd 58 c0 ed 3c
       -0.03249091 -0.05579458 -0.036573045 0.02902238
0002d0 c4 35 4d bd 30 b9 cd bb 7e 13 36 bd 28 ba 86 3c
       -0.050100103 -0.0062781796 -0.044452183 0.016446188
0002e0 20 8e f8 3c e4 12 cc bc c0 c2 be bc a8 aa 3b bc
       0.030341208 -0.024911352 -0.023286223 -0.011454262
0002f0 cc c7 ac 3c f0 58 8f 3b 36 ee 07 3d 74 0c b9 bc
       0.021091364 0.004374616 0.03318616 -0.022588946
000300 70 37 8b 3c a8 aa 23 bc f8 4f 2c 3c c8 94 30 bd
       0.016994208 -0.009989418 0.010517113 -0.04311064
000310 78 34 8a 3c 98 73 4c bc 88 d8 ce bc 60 23 9a 3b
       0.016870722 -0.012478732 -0.025249735 0.004703924
000320 0c 6f 8e 3c a4 51 18 3d b0 d1 e1 bc 1a 04 7e bd
       0.017386936 0.037187234 -0.027565807 -0.06201563
000330 8c 58 e8 bc 00 45 c4 b9 36 23 13 bd 18 d5 08 bc
       -0.028362535 -0.00037435442 -0.03592225 -0.008351587
000340 d0 7b 68 bd 76 7e 1e bd dc 11 c5 bc 18 d8 88 bc
       -0.0567587 -0.03869482 -0.024056368 -0.016704604
000350 20 89 a2 3b 04 32 72 bd cc 80 f6 bc be fd 3e 3d
       0.004960194 -0.05912973 -0.030090712 0.046628706
000360 70 41 8f bc bc 43 f3 3c 02 18 1b bd 60 b3 2f bc
       -0.017487258 0.029695384 -0.037864693 -0.010723919
000370 ea 99 78 3d 14 db 82 bc b8 76 04 bd 7a 4c 38 bd
       0.06069366 -0.015973605 -0.03233978 -0.04499481
000380 12 89 0a bd ba 1e 7a bd ec 32 db bc 84 58 cc 3c
       -0.033822127 -0.06106446 -0.02675768 0.024944551
000390 04 b4 dc bc e4 80 e0 3c 70 cd 0a 3c a0 8e ba bb
       -0.026941307 0.02740521 0.008471832 -0.0056932718
0003a0 78 f5 7c bc c8 a3 23 bd a4 a6 9d 3c 00 d7 ff 3b
       -0.015439384 -0.039951116 0.0192445 0.0078076124
0003b0 18 38 b6 3c e0 30 b3 bb 54 c0 b1 bc 72 6a 5e 3d
       0.022243544 -0.005468473 -0.021698155 0.054300733
0003c0 1c 6d db bc 9c da eb 3c 0a 8f 49 bd d6 26 04 3d
       -0.026785426 0.028790765 -0.04920868 0.0322636
0003d0 74 94 d0 bc b0 47 d6 3b 32 e9 38 bd 14 f1 15 bd
       -0.025461413 0.0065393075 -0.045144267 -0.036606863
0003e0 76 8f 62 3d 50 72 a7 3b 40 81 71 bd f8 bc d9 bc
       0.055312596 0.0051100627 -0.058961153 -0.026579365
0003f0 08 4f 0a bc c0 14 a9 bb 16 40 6c bd 86 f0 56 3d
       -0.008441694 -0.0051599443 -0.057678305 0.052475475

fc2.bias f4 [128]
000000 4c df b5 bc 79 5c 84 3c 8a 9e 84 bd 04 67 18 3d
       -0.022201203 0.016157376 -0.064755514 0.03720762
000010 cc 49 b5 bc fd 22 95 3c 83 ed 47 3c 80 e3 68 3d
       -0.022129916 0.01820516 0.012202623 0.056857586
000020 47 95 e0 3a 5b 42 31 3d fd 94 34 bc b8 16 ae 3c
       0.0017134332 0.043276172 -0.01102185 0.021251068
000030 f3 57 3d 3c b2 a0 78 3d 85 e7 e9 3c 80 2e f8 bc
       0.011556613 0.060700126 0.02855278 -0.03029561
000040 e2 b2 b8 bc 21 f4 68 3d 16 fd 40 bd a0 f0 8c 3b
       -0.022546235 0.056873444 -0.04711636 0.0043011457
000050 ba cb 07 bc eb 5d 2d 3d b1 b8 de 3c 73 a1 24 3d
       -0.008288318 0.042325895 0.027187677 0.040193032
000060 8e e7 15 bd e6 7e 2e 3d be 83 0d 3c 83 45 12 3c
       -0.03659778 0.04260149 0.008637367 0.008927706
000070 0f ab ac bb cb a1 e1 bc 4c 33 6b bd 69 a3 79 bc
       -0.005269415 -0.02754297 -0.057421967 -0.015236714
000080 2c 7a 6b bd df d2 09 3d b7 7c 05 3c 75 2c b2 bb
       -0.05748956 0.033648368 0.00814741 -0.0054374286
000090 f7 0e 27 3d 0e 71 32 3d 4c 45 a2 bc 85 28 ae bc
       0.040785756 0.04356485 -0.019808434 -0.021259556
0000a0 5e 16 4c bd 12 5b 0f 3c e9 f8 8b bc c2 c4 65 3d
       -0.04982602 0.00874974 -0.017086463 0.056095846
0000b0 f3 24 d4 3c f8 1b 46 3c 2b 29 80 3d a2 f1 97 bc
       0.025896525 0.012091629 0.06257852 -0.018547837
0000c0 77 c9 7b bb 2c 10 e5 bc 9c 05 c1 bc fe cc cf bc
       -0.0038419643 -0.027961813 -0.023562245 -0.025366303
0000d0 3e 04 f3 3c c0 11 4c 3d ea d7 ec 3c da a3 57 3d
       0.029665109 0.049821615 0.02891155 0.052646495
0000e0 3e d4 1f 3d b0 35 f9 3c bf fc ba 3c be cb ee bb
       0.03902077 0.030421108 0.022825597 -0.0072874716
0000f0 83 47 47 3d 3d 85 04 bd d4 57 da bc 61 28 28 3d
       0.048652183 -0.03235363 -0.026653208 0.041054133
000100 c5 1d 59 bd 81 08 67 3d 8a c4 21 bd a8 ab 44 3c
       -0.053006906 0.056404594 -0.039494075 0.012003817
000110 92 7a 2c 3d 37 2c a0 ba 03 e6 cf 3a 9b e5 02 3d
       0.04210908 -0.0012220208 0.0015861396 0.03195725
000120 91 cc 1c bd 5e dd 08 bd 25 ce 3a bc cb 5e 40 bb
       -0.038281027 -0.033414237 -0.011401688 -0.0029353376
000130 3b 88 0c 3d 82 56 56 bd a6 e9 2a bd c2 9b f7 3c
       0.034309607 -0.052328594 -0.04172673 0.030225638
000140 00 22 10 bd 92 d5 56 bd 98 c2 3a 3c 32 1a 1c b9
       -0.035188675 -0.05244977 0.011398934 -0.00014887078
000150 37 1f 5b 3d ef cb 80 3c 85 7b 65 3d 04 f4 7e bd
       0.053496566 0.015722243 0.056026 -0.06224443
000160 dc 5f 43 3d a5 a4 31 3d a3 9b 60 3c b8 f0 4e bd
       0.04769884 0.043369908 0.013708982 -0.050522536
000170 7f d5 29 3d 9a 5c 46 bd 37 d6 70 bd 01 96 01 3d
       0.04146337 -0.048428155 -0.05879804 0.031637195
000180 d0 32 8e bb 50 e7 62 bd aa 4d 5c bd ce 50 5b bd
       -0.0043395534 -0.055396378 -0.053785004 -0.05354386
000190 b3 dc d6 3c 0a 30 a2 bc bc 23 20 bd cd 83 04 3d
       0.026228284 -0.019798297 -0.03909658 0.032352258
0001a0 ad d8 3c bd 55 72 0f bd 3e 3f 17 3d 13 86 2c 3d
       -0.046105076 -0.035021145 0.036925547 0.04212005
0001b0 a4 31 a4 bb a8 cf 93 3c 51 41 cd 3c ea 29 ce 3c
       -0.0050108004 0.018043354 0.02505556 0.02516647
0001c0 e0 f1 c8 b9 e5 d1 77 bc 61 87 32 3d d6 da c6 3c
       -0.00038327184 -0.015125726 0.04358614 0.024274271
0001d0 b3 f0 76 bd dc 3f dc 39 36 17 1d bd b9 6e bb 3b
       -0.060288142 0.0004200925 -0.038352214 0.0057199863
0001e0 71 ef e7 3c 24 49 c9 3c 03 0d 53 3d e3 3b c4 bc
       0.028312417 0.024571009 0.05152608 -0.023954337
0001f0 20 a2 5a bd d1 5f 3b 3d e3 8a e1 bc c3 f1 04 bc
       -0.05337727 0.045745675 -0.027532047 -0.008114281

fc3.weight f4 [2, 128]
000000 18 a2 67 bc 6a 73 dc bd 83 03 14 3c 0a 12 91 bc
       -0.014137767 -0.10764201 0.00903404 -0.017708797
000010 48 61 09 3c 23 dd 66 3d ba 81 b7 bb a9 f7 4f bc
       0.00838501 0.056363236 -0.0056001814 -0.012693324
000020 a7 93 e5 3c ca 8a 36 bd 24 e3 c1 3d 36 f3 07 bd
       0.028024508 -0.044565953 0.09467152 -0.03319093
000030 bd 57 f4 3d 9f 00 10 3e 65 64 b5 bc 89 82 c1 3c
       0.11930797 0.14062737 -0.022142598 0.023621814
000040 0e 54 73 3d f7 95 c6 3c 50 d1 d4 3b d1 f3 9d 3d
       0.059406333 0.02424143 0.0064946786 0.0771252
000050 8f 5e ba 3d 1a 5e 03 bd 6d 04 4e bd d1 80 71 bd
       0.09100067 -0.032072164 -0.05029719 -0.05896074
000060 54 1a 9d bc 05 50 1d bd 2d 2f 52 bd a3 3e ad 3d
       -0.019177593 -0.03840639 -0.05131452 0.08459213
000070 03 c5 c7 bd c8 22 28 bd e0 f2 aa bc a7 a7 5b 3d
       -0.09754374 -0.041048795 -0.020867765 0.053626683
000080 c5 68 5e 3d 69 7c ee 3c ed e6 11 3d ff 76 a6 3d
       0.054299135 0.029112058 0.03562062 0.081281655
000090 e8 68 c0 bd c3 0b 84 3d c3 8b 31 bd 17 28 a0 3c
       -0.09395009 0.06447556 -0.043346178 0.019550366
0000a0 09 82 0e 3d 68 32 95 bd 93 99 1e 3d ea fd 59 3d
       0.03479198 -0.07285005 0.03872068 0.053220667
0000b0 6c ac b1 bd e6 f4 37 3d d9 b1 3a bb 82 f1 64 bc
       -0.08675465 0.044911288 -0.0028487353 -0.013973596
0000c0 4e 45 38 bd 7f ac 91 bc a0 4d b8 bd fb 78 d3 3d
       -0.04498797 -0.017782448 -0.08999181 0.103258096
0000d0 2a 97 70 3d e3 c1 87 bd c1 11 44 bd b9 59 90 ba
       0.05873791 -0.06628778 -0.047868494 -0.0011013068
0000e0 1c d5 7f bd 60 94 4d 3c 7b 84 8c bd c8 65 96 3d
       -0.062459096 0.012547582 -0.06861206 0.07343632
0000f0 d1 c8 9a 3c 47 00 74 bc 44 b3 e7 3b 91 18 3a bd
       0.018894585 -0.014892644 0.0070709307 -0.045433585
000100 3f 75 27 3c 11 d3 58 bd 0e 48 29 bd e0 17 b2 3c
       0.010220825 -0.052935664 -0.041328482 0.0217399
000110 69 2f b0 bc bb 69 fd bc b4 df 48 3d dd 0c bc bd
       -0.021506982 -0.030934205 0.049041465 -0.09182141
000120 d1 fc a3 3c 98 ab 2e bc 73 ea 99 3d 3e 00 64 bc
       0.020018013 -0.010661028 0.07515421 -0.013916073
000130 9f 2d 2b bd 20 92 58 3b 48 56 56 bd 99 7f 71 3d
       -0.041791555 0.0033046082 -0.052328378 0.058959577
000140 c0 89 6e bc 2d 4d 3d bd 16 cd 44 bd 9a 6e 76 3d
       -0.014559209 -0.04621618 -0.048047148 0.06016407
000150 72 2d b8 3d f1 f7 54 bd d3 1d 87 3d 50 cc 8a bc
       0.08993043 -0.051994268 0.065974854 -0.016943127
000160 83 82 96 bd 3f 20 7f 3d 67 4e c2 bb 93 d4 ac bd
       -0.07349112 0.06228661 -0.0059297564 -0.08438983
000170 a6 c1 68 bd 6b 16 8b bd e1 6a 0b 3d 07 a8 10 3c
       -0.056825303 -0.06791385 0.034037475 0.008829123
000180 d2 58 37 bd af 7e 3f bd fe 3d 46 bc 90 60 0e bc
       -0.04476244 -0.046751674 -0.012099741 -0.0086900145
000190 e0 ef 67 3d 30 a4 9f bd d1 2a cb bc b4 f4 94 3d
       0.056625247 -0.07794988 -0.02480069 0.07273236
0001a0 53 16 bd bd 88 54 58 3c 25 b5 9c bc f4 8a e2 3d
       -0.09232774 0.013203748 -0.019129345 0.110616595
0001b0 26 ee 69 3d a0 e6 ac bc 28 20 60 bd fd b6 8b bd
       0.05711188 -0.021106064 -0.054718167 -0.068220116
0001c0 10 ed 8b bd 8c 12 a6 bd 74 9f 07 3d 68 74 94 bd
       -0.068323255 -0.08109006 0.03311105 -0.07248765
0001d0 28 8d bd bc 84 c9 b8 bd 67 33 4b 3d 5b ee 35 bc
       -0.023138598 -0.09022811 0.049609568 -0.011104192
0001e0 aa 40 bc bd c4 9d 86 bd a4 26 8c bd 5d 86 ab 3d
       -0.09192021 -0.0657306 -0.068433076 0.08375237
0001f0 fd f7 bd bc 14 ef a6 3d a2 8e 3d 3d a7 41 24 3d
       -0.02318954 0.08151069 0.046278603 0.040101673
000200 4a b9 67 3d 6f 14 39 3c 63 6e be 3d 9a 2b b2 3c
       0.05657319 0.011296376 0.09298398 0.021749306
000210 de 9d 62 bd 59 95 d6 bd 37 44 a5 bd 06 3d a7 bc
       -0.055326335 -0.104777046 -0.080696516 -0.02041484
000220 dd 6f e4 bd 7d 0f 7c 3d c2 60 b8 bd c2 e1 5c bd
       -0.11154149 0.06153821 -0.0900283 -0.053926237
000230 38 ad 1d be 0c fe fc bd 1e 08 dc bd e2 f7 fe b9
       -0.15398109 -0.12353143 -0.10743736 -0.00048631342
000240 ef e9 33 bd 5e 30 8c 3d 8c b1 94 3c 8a c1 4c bd
       -0.04392427 0.06845163 0.018151067 -0.04998926
000250 48 92 08 be 78 94 c8 bb 76 32 51 bd 93 b6 cb bc
       -0.13337052 -0.0061212145 -0.051073514 -0.024867332
000260 f3 bf 84 3d fe ec e8 3d c0 c6 8f 3d 8a ec c9 bd
       0.06481924 0.11373328 0.070203304 -0.09859569
000270 6d 0d 89 3c 8c 46 c0 bc b7 24 be bc 2b f7 b3 3c
       0.016730035 -0.02347114 -0.023210866 0.021968445
000280 82 5d c9 3d 34 43 ba bd 66 c7 29 3d 97 ba a4 bd
       0.09832288 -0.09094849 0.041449927 -0.08043402
000290 e7 6a b6 3c 5c 86 7e bc 5d 4c 2f bd d6 5d fc bc
       0.022267772 -0.015534963 -0.042797435 -0.030806463
0002a0 96 7b 4e bc 01 1f 1e bd 0a b7 c6 bb 16 8d 2a b9
       -0.012602707 -0.038603786 -0.0060643004 -0.00016265022
0002b0 c2 e7 e4 3d a9 dc 90 3d ec 46 5b bd 6f 78 02 3d
       0.11177017 0.070733376 -0.053534433 0.031853136
0002c0 45 da 92 3c 76 11 45 3d 34 9c 60 3d a1 cd 0b 3d
       0.017926345 0.048112355 0.054836467 0.03413165
0002d0 e0 b5 8e 3d 0c 35 9f bd e1 65 98 bd 94 0a d1 3d
       0.06968284 -0.0777379 -0.07441307 0.10207096
0002e0 4e f4 9f bc 79 b8 88 3d f7 1d 98 3d 2e 36 f2 3c
       -0.019525673 0.0667581 0.0742759 0.02956685
0002f0 5a 03 c1 bd d7 b2 2b bd 86 a2 13 3d f2 15 a8 bd
       -0.094244674 -0.0419186 0.036043666 -0.08207311
000300 fd 7b 06 bd 6e f2 95 3d 5e 12 22 3d 68 2e 20 3c
       -0.03283309 0.073216304 0.039568298 0.009776689
000310 44 59 46 bd 93 96 7a 3d 69 15 81 bd bb ae 3f bd
       -0.048424974 0.061178755 -0.06302912 -0.046797495
000320 18 4b 2b bc b9 2e cc bc 6d 4b a5 bd 1f 22 ad 3d
       -0.010454915 -0.024924623 -0.08071027 0.08453774
000330 6a bb 05 bd 6c 0c a1 bd 7f 75 c2 3c 6a 56 99 bd
       -0.032649435 -0.078636974 0.023737667 -0.07487185
000340 10 c9 ab bc eb ad 25 3d d5 22 a7 bd 37 38 19 bc
       -0.020969898 0.040449064 -0.081609406 -0.009351782
000350 d6 0b 3b b8 c9 c3 b4 3c b5 b8 0e bd ea 1b 4a 3d
       -4.4595297e-05 0.022066014 -0.03484412 0.049343027
000360 e4 cf 50 bd 02 0f 79 3c 25 f4 99 bb 75 6d d2 3c
       -0.05097951 0.015201332 -0.0046982937 0.025686959
000370 ba 53 9a 3c 53 11 92 bd 30 17 83 bc 4a 20 1f bd
       0.018838752 -0.071322106 -0.016002268 -0.038849153
000380 78 ec aa 3c 9c da 74 bd 6f ae a4 3d 60 53 0a 3c
       0.02086471 -0.059778795 0.08041083 0.00844273
000390 16 d0 38 bc 6c ac 6c bd bf f4 78 bd e4 94 16 3c
       -0.01128008 -0.05778162 -0.060780283 0.009190772
0003a0 e4 9b 44 bc 46 bf b1 bd 5e c4 8c 3c 0d 38 7f 3a
       -0.012000058 -0.08679061 0.017183479 0.000973583
0003b0 c1 5f 23 3d ee e0 5e bd 2d 77 dd bc e6 a2 cb 3d
       0.03988624 -0.05441373 -0.027034367 0.0994318
0003c0 1d 3e 21 bd 17 6f a2 3c 06 17 8e 3a a3 61 21 bd
       -0.039365876 0.019828362 0.0010840602 -0.039399754
0003d0 b6 fd a8 3c b9 e9 c1 3d 29 d5 a8 bd f4 1b 13 bd
       0.020628791 0.09468407 -0.08243782 -0.03591533
0003e0 56 94 46 bc ab 15 61 bd 5a 25 ed 3c e2 59 cf 3c
       -0.012120327 -0.054952305 0.028948475 0.025311414
0003f0 ef ec a9 bc 53 91 30 3c 65 16 41 3d f5 f6 31 3d
       -0.020742862 0.0107768355 0.047140498 0.043448407

fc3.bias f4 [2]
000000 6a e4 37 3d f6 31 63 bd
       0.044895567 -0.05546757

loss_fn.weight f4 [2]
000000 cd cc cc 3e 9a 99 19 3f
       0.4 0.6
