code/result/DNN_test.pt (torch, 317583 bytes, 7 tensors)

fc1.weight f4 [256, 172]
00000000: 19e4 62bc 8f85 ff3a 8488 783d 324f 0c3c
00000010: 42a6 15bd 98ca 903c d90f 39bd 121c 503c
00000020: 4517 523d 31d6 96bd 30e3 8c3d d2c9 1cbd
00000030: 797c da3c 3ecf 3dbd 02c2 993c e6b6 3cbd
00000040: bc60 603b 602a 90bc b1d3 cd3b bffc 6b3d
00000050: b16a b2bb 57e6 8fbd 9516 89bd 81cb 59bd
00000060: a626 033b b5cd e83b 7f3d e33c e4f7 d2bc
00000070: 3073 4c3d 2588 013d 3032 723d 9036 85bc
00000080: 2b0d ab3c c30a 8dbd 5ea3 1ebd 3f9b 89bd
00000090: c69a 8ebd 8a8e 6c3d 4cba 4dbb e649 9bbd
000000a0: 1a3a 883c af2c 1abd 9b6d a9bc 51c6 283d
000000b0: 087c 103d 9919 c03c 86f4 1abd 4b3e 7bbd
000000c0: 1355 843d a58d 3dbd ba0e 453d 919d 92bd
000000d0: 962d 82bc bd44 2d3d 8c4c 4abd bf62 5dbc
000000e0: c4c4 84bc 7e73 df3c a1b4 883d 2e20 96bd
000000f0: 9724 c2bc f9ff 543c ba33 fd3c eaa8 2cbd
00000100: d32a 29bd 3068 893d 6ca1 9bbd 9956 af3c
00000110: 16a3 093d 2c8d eabc a85d 703d 352b 9c3d
00000120: a93c 23bd a795 99bc 942f 573d 5d17 963c
00000130: 00dc 79bd e53a 8c3c 0150 ddbc 507d 8f3d
00000140: 93b8 8c3d 22aa f23c 3da5 8f3d ec00 f6bc
00000150: 8d7e 30bc a8ad 24bc 5f03 a83c 191e 643b
00000160: bc64 9abd ce4c c03c f7de 053c 698f 0abd
00000170: ce2b 6d3c 5f00 66bd 3b52 3b3d 5cbc 123d
00000180: 088d adbc 5033 563d 36ef 73bd 7bcf f9bc
00000190: 3e7f 863d f62b 2dbb 8f84 3b3d 3f87 15bc
000001a0: f9d3 18bc 5e92 8bbd 9946 5cbd 2147 733d
000001b0: d587 583c 6cf5 643c b862 903c fb51 b33c
000001c0: d625 bd3c f49e 76bd f7c3 3d3d 92fc 6aba
000001d0: a39a 62bd f0d8 8abc f78b 4d3d 131e d23c
000001e0: ae82 7e3d 5987 273d f654 87bd 922d 353d
000001f0: 949a 35bc 97b7 563d da81 c5bc 33f3 f4bc
00000200: 970d 6f3c 5341 0abc f4a9 923d 62bf 22bd
00000210: 7b34 b23c 50b1 65bc e1e9 06bd de11 543b
00000220: b031 9abd 9d89 80bd 9f4d 7cbc 9829 4b3d
00000230: c744 163d 306b 92bd 2e27 973d 2f79 383d
00000240: dec9 3cbd d99f 3fbd 76d1 c5bc a3e2 b23c
00000250: f253 2cbd 172b d0bc f404 a33c ae1d 66bd
00000260: 15f0 c63b 944f e1bc 0f7e 543d 2a18 9a3c
00000270: 2bb3 7cbd 17b5 983d 05ba 86bc f7bf 663c
00000280: 38d6 353d 4cae c8bb 4cf5 e2bc 5b98 a5bc
00000290: 4465 9c3d 11ab 363d a669 9c3b cc08 16bd
000002a0: 849f 9ebc 5dfb 82bd df31 4f3d eca2 86bc
000002b0: 5008 f3bc 18b9 02bc 0ca5 3c3d 2cba e1bc
000002c0: 3458 c33c 22f4 75bd 1805 4fbc 2066 2cbc
000002d0: 4c3a 4f3d f0f9 acbb 341a ff3c b04d 48bc
000002e0: a68f a9bc c9f6 17bd dc00 8f3d ee59 3ebd
000002f0: 886f 07bd b478 483d 05fc 5ebd b864 dfbc
00000300: a894 7d3d f8ac 12bd 885b 393d 1ae0 05bd
00000310: d101 9abd 3084 943b 6098 ccbc e471 2a3d
00000320: bc63 4e3d 8441 0c3d 4e1a 8dbd b74c 82bd
00000330: f441 04bd fe55 89bd 102c 9c3c b758 77bd
00000340: 24f1 993c a428 fd3c c8c4 82bd f027 653d
00000350: 3303 0cbd 043f 883d 7a20 82bc 52a5 10bd
00000360: 5990 37bd 521c 8dbd 7e23 8fbd e6f3 853d
00000370: 360f ddbc 46db 453d 0208 973d 5078 02bd
00000380: 4ced 4abd 541c a13c b00f 893b 5a12 5bbd
00000390: 3010 7e3c 7e20 adbc 04c1 e23c c02a 5cbb
000003a0: fcff 353d 7d26 72bd dbd1 98bd e04f 4bbb
000003b0: d46e 933d b884 d63c 79d5 79bd 6c24 c43c
000003c0: 7012 c53b fa3f 79bd 6462 06bd 2067 d43b
000003d0: 9479 9cbc ae07 c7bc c0c0 6f3d 5acb 453d
000003e0: 8a20 963d 7afc f0bc 5e64 093d a0d4 463b
000003f0: 8876 33bc c94a 05bd 40d2 84bb 773f 8abd
-0.013848328 0.001949476 0.060677066 0.0085638035 -0.03653551 0.01767473 -0.04518113 0.012702005
0.051291723 -0.073650725 0.0687927 -0.03827841 0.026670681 -0.04634022 0.018769268 -0.046072863
0.0034237346 -0.017598331 0.006281339 0.057614084 -0.0054448475 -0.07026356 -0.0669376 -0.053172592
0.002001205 0.0071046003 0.027739285 -0.02575297 0.04991454 0.03162398 0.059129894 -0.016261369
0.020880302 -0.06886818 -0.038730018 -0.06719064 -0.069631144 0.057753123 -0.003139156 -0.075824544
0.016629267 -0.03764027 -0.020682147 0.041204754 0.035274535 0.023449706 -0.037830852 -0.061338704
0.06461539 -0.04627766 0.048109747 -0.0715896 -0.015890878 0.042301882 -0.049389407 -0.013512312
-0.016207106 0.02727675 0.06675077 -0.073303565 -0.023699088 0.013000482 0.030908454 -0.042153277
-0.041300606 0.06709325 -0.07599148 0.021403598 0.033602796 -0.02863177 0.058683068 0.076254286
-0.039852772 -0.018748118 0.05253561 0.018321687 -0.061000824 0.017117927 -0.027015688 0.07006323
0.06871142 0.029622141 0.070139386 -0.030029736 -0.01077236 -0.0100511685 0.02050942 0.0034807979
-0.07538745 0.023474123 0.008170835 -0.033828173 0.014475776 -0.056152698 0.045732718 0.035824165
-0.021185413 0.05229503 -0.0595543 -0.030494442 0.06567238 -0.0026423908 0.045780715 -0.009126483
-0.009327882 -0.06815027 -0.053778265 0.059394006 0.013215979 0.013974529 0.017625198 0.021889677
0.02308933 -0.060210183 0.046329465 -0.00089640275 -0.055323254 -0.016949147 0.05018231 0.025649106
0.062136345 0.040900562 -0.06608002 0.044232912 -0.011084218 0.05242118 -0.02410977 -0.029901123
0.014590642 -0.008438426 0.07161322 -0.039733298 0.02175354 -0.014019325 -0.032937888 0.0032359282
-0.075290084 -0.06276248 -0.015399366 0.049600214 0.036686685 -0.07149351 0.0738052 0.045037445
-0.046090953 -0.046783302 -0.02414773 0.021836584 -0.042072244 -0.025411172 0.019899823 -0.05618065
0.0060711005 -0.027503766 0.05187803 0.01881035 -0.061694305 0.07456415 -0.016446123 0.014083854
0.044393748 -0.0061242934 -0.027704857 -0.02021425 0.076365024 0.044596735 0.0047733365 -0.036629483
-0.019363172 -0.063956 0.05058467 -0.01643511 -0.02966705 -0.0079787 0.04605584 -0.027554594
0.02384577 -0.060047276 -0.012635492 -0.010522395 0.050592706 -0.0052788183 0.031140424 -0.012225553
-0.02069838 -0.037100587 0.06982586 -0.046472482 -0.03306535 0.048943236 -0.054439563 -0.027269706
0.061909348 -0.035809487 0.045253307 -0.032684423 -0.07519878 0.0045323595 -0.024975002 0.04161252
0.050388083 0.034242168 -0.06889783 -0.063622884 -0.03228946 -0.06705855 0.01906398 -0.06038734
0.018791743 0.030903168 -0.06385189 0.05594629 -0.03418274 0.06652644 -0.015884627 -0.03531391
-0.044815395 -0.06890167 -0.069891915 0.065406606 -0.026984792 0.04830482 0.07374574 -0.03185302
-0.04954271 0.019666828 0.0041827783 -0.0534843 0.015506789 -0.021133658 0.027679928 -0.0033594817
0.04443358 -0.059118737 -0.07461902 -0.003102295 0.07198873 0.026186332 -0.0609946 0.023943149
0.006014161 -0.06085203 -0.032808676 0.00648202 -0.019100942 -0.024295654 0.05853343 0.048289634
0.07330425 -0.029417265 0.033542983 0.0030339137 -0.010953553 -0.032542024 -0.004053384 -0.06750386

fc1.bias f4 [256]
00000000: d1fb fd3c c087 603d 90fc 0dbd 0c3b 04bd
00000010: 19ba 643d 5e41 9b3d 7463 ecbb 2c59 12bd
00000020: 5c1f 143d 6b5e 2d3d bfdd 5ebd 1069 24bd
00000030: 6ca1 e6bb 860f 97bc bf3c 14bd 6ce8 033b
00000040: aaf0 40bc 7438 13bd 6206 a33b c702 70bd
00000050: f040 11bd 432a 4dbd 3155 a23a f854 cb3b
00000060: a840 4a3c 020e 203c 8e1d 9bbd e2f6 e53c
00000070: 1f59 7bbc 30ea 493c 4d2a 933d 1776 013d
00000080: ec37 883d a0ff f03c 2776 67bd 72ab 57bd
00000090: 496e 5e3c 7007 073d 5eec 3a3d 6bd0 2bbd
000000a0: 6aa0 e1b8 9428 bf3c 01bd 0cbd ea58 4ebd
000000b0: eea9 b6bb 2646 0f3d 5fe2 a3b9 5b26 43bc
000000c0: c034 d53a ac98 413d 8077 163b e61b 4cbd
000000d0: 70f8 8e3c f17c 58bd 6482 31bd 12d8 0d3d
000000e0: 913e 1b3d 3165 a9bc 395b a93c a9c2 6dbd
000000f0: 5012 833c 1a2d febc 30f2 8bbc e153 c6ba
00000100: 8e1e 44bd 5b3c 20bd beab 4bbd c4be 72bb
00000110: 6f15 5abd 39a9 75bc 20df 7bbb 3e36 253d
00000120: 9b7d 823c 6973 4f3b 5065 b9bc 20b6 9dbb
00000130: 6867 043d 109e d83b a21e 59bc 029a 0cbd
00000140: 6e1a b6b9 fb27 ea3c ea48 af3c a4bd 91bd
00000150: 0449 2cba 446f 9b3d cfa9 983d 2cc5 333d
00000160: f681 44bd 70e7 84bd 5f4e 78bd a290 c8bc
00000170: fb18 26bc 2d78 253d c0c3 1e3b 1b6a 8abd
00000180: d992 fa3c c155 7fbd dfed 30bd 0431 afbc
00000190: 8acb 103d b559 633d 1148 b43b cee9 90bd
000001a0: 7f0b 183c bd44 1cbc c46e 7cbd 89a8 5e3d
000001b0: 4fb9 64bd b9b5 96bd 4fd1 98bc 6902 8f3d
000001c0: 0654 9abd cdfb 1c3d cd37 9bbd ab92 0b3d
000001d0: d032 4dbd 67bc 253d b449 d33c 3901 dd3a
000001e0: 78d6 97bc d210 623d 547b 1c3c a34b a03c
000001f0: e2b9 8b3d c14a 04bc 93ad b0bb 2ed7 943d
00000200: 01a8 3d3d ba5b 4e3d a165 9a3c 85b7 89bd
00000210: b346 f23c de2c 5cbd 8831 d3ba 2d8a 88bd
00000220: 790c 633d 1238 6fbd 14e8 eabc 1031 92bd
00000230: 73ab 583d 9bf7 b6bc b996 cd3c 1070 823d
00000240: bc26 5b3d 6265 123d 703e 58bd 7273 b5ba
00000250: e33b 05bd 30df 013d 5197 67bc 673f a63c
00000260: e99a b23c d8e0 a839 2ac1 353d 0557 26bd
00000270: 441b 2d3d b0af 373c 20e1 2d3d f3c1 85bd
00000280: 9414 8fbd bb08 933d afa2 87bc 0f05 7f3d
00000290: 0499 a53c e392 223d 0423 843c 999c dfbb
000002a0: 2ea2 08bc 900a 263d 81d3 3bbc 1427 a93c
000002b0: feaf 2fbc bed8 40bc 3c3b 763d f4b0 ba3c
000002c0: 5c0b aa3c 5d31 f33c d7c1 2cbc 3aa9 4f3d
000002d0: a8f6 223d e8db b93c c5d8 593d 7881 48bc
000002e0: 686e 49bd f864 9c3c 6618 1ebc b669 443d
000002f0: 1ee3 e4bc 937a 09bd e04c 16bd ad40 62bd
00000300: ca4d 45bd 15b3 9bbd b511 103c bdac 3bbd
00000310: 11c0 b23c 165c 383d 08ea f73c b8ab 96bc
00000320: 86f0 003d 5d84 96bd 46a3 96bd f465 cb3c
00000330: d67c a53b 1a69 dabb 81f4 7dbd 7b90 ce39
00000340: 886a 3a3d b4bb 963d 02cf b63c 882d 36bc
00000350: a78a 81bc 9490 393d e5bd 1dbd 5e6d 0c3d
00000360: 540a 243b 0f99 adbc dbc6 603d 94b8 653d
00000370: f4e6 70bd 863f 963d a621 7fbd b227 b93c
00000380: 6964 10bd a2c1 8b3d a089 2a3d 4728 83bd
00000390: 5b51 4bbc 29db 7dbd 0d87 9dbc e01b fcbc
000003a0: ab59 fcbc 2a1c 413d 1672 bd3a 0981 86bc
000003b0: 05be 883d 5d9e 93bc df1b 4f3d f397 79bd
000003c0: 9c20 ecbc e03b 9fbc 6223 7bbd 14c8 a73c
000003d0: d19c 7d3d 51f2 7fbd 9efb f5bc a5e3 07bd
000003e0: 2c40 37bc 4c44 54bd 62d8 2e3d 61fe 4cbd
000003f0: 0556 983d 4c44 3fbd acd5 a83b 11af 1f3d
0.031003864 0.05481696 -0.03466469 -0.032282874 0.05584154 0.07580827 -0.007214004 -0.035729572
0.03616272 0.042326372 -0.054410692 -0.040139258 -0.007038286 -0.01844002 -0.036190744 0.0020127548
-0.011776129 -0.03594251 0.004975126 -0.0585964 -0.03546232 -0.050089132 0.0012385008 0.0062051974
0.012344517 0.009768965 -0.075739965 0.028071824 -0.015341072 0.012323901 0.071858026 0.03160676
0.06651291 0.029418766 -0.056509163 -0.052653737 0.013576099 0.032966077 0.045635574 -0.04194681
-0.000107587155 0.023334779 -0.034359936 -0.050377764 -0.0055744564 0.03497901 -0.00031258442 -0.011911
0.0016266331 0.04726474 0.002295941 -0.049831294 0.017452449 -0.05285353 -0.04333724 0.03462989
0.037901465 -0.020678135 0.020673381 -0.05804697 0.015999943 -0.031027365 -0.017083257 -0.0015131199
-0.0478807 -0.03912006 -0.049724333 -0.0037039975 -0.053243097 -0.014993959 -0.0038432553 0.040334933
0.015929034 0.0031654483 -0.022631317 -0.0048129708 0.03232518 0.0066106394 -0.013251932 -0.03432656
-0.00034733437 0.028583517 0.021397073 -0.07116249 -0.00065721595 0.075895816 0.074542634 0.04388921
-0.047975503 -0.06489456 -0.060621615 -0.024483029 -0.010137792 0.04039781 0.0024225563 -0.06758519
0.0305876 -0.06233764 -0.0431956 -0.021385677 0.03535036 0.055505473 0.005501755 -0.07075845
0.009280085 -0.009537873 -0.06162907 0.054359946 -0.055840787 -0.073588796 -0.018654494 0.069828816
-0.075355574 0.038326073 -0.075790025 0.03407542 -0.050097287 0.040462878 0.02579198 0.0016861326
-0.018534884 0.055191822 0.009550888 0.019567316 0.06822564 -0.008074463 -0.0053917854 0.07267605
0.0463028 0.050380446 0.018847289 -0.06724457 0.029574728 -0.053753726 -0.0016112784 -0.0666698
0.055431817 -0.058403082 -0.028675117 -0.07138264 0.05289788 -0.022334864 0.025096284 0.063690305
0.053503737 0.035741217 -0.05279392 -0.001384361 -0.032527816 0.03170699 -0.014135198 0.020293904
0.021802383 0.0003221098 0.04437367 -0.040610332 0.04226233 0.011211321 0.042451024 -0.065311335
-0.06986347 0.071793996 -0.016557066 0.062260684 0.020214565 0.039690863 0.016129978 -0.006824088
-0.008339448 0.040537417 -0.011464001 0.020648517 -0.010723112 -0.011770425 0.060115084 0.022789456
0.02075737 0.029686624 -0.010544262 0.050698496 0.03978601 0.022687867 0.053185243 -0.012237899
-0.049177557 0.019091114 -0.009649372 0.047952376 -0.02794033 -0.03356416 -0.036694407 -0.05523746
-0.04816989 -0.076025166 0.008793284 -0.045819033 0.0218201 0.045009695 0.030262962 -0.018392429
0.03147938 -0.07349465 -0.07355361 0.024828888 0.005050282 -0.006665361 -0.062000755 0.00039399028
0.045511752 0.0736002 0.022315506 -0.011119254 -0.015813185 0.045303896 -0.038511176 0.03428399
0.002503057 -0.021191148 0.054877143 0.05608423 -0.058814004 0.07336335 -0.06228795 0.022601936
-0.03525201 0.06824042 0.041635156 -0.06404167 -0.012409533 -0.061976586 -0.019229436 -0.03077501
-0.030804476 0.047146 0.0014453556 -0.01641895 0.06676868 -0.01801985 0.05056369 -0.060935926
-0.028824143 -0.01943773 -0.06131304 0.020481147 0.06191713 -0.06248695 -0.030027207 -0.033176083
-0.011184733 -0.051822945 0.042686827 -0.050047282 0.07438282 -0.046695992 0.005152425 0.038985316

fc2.weight f4 [128, 256]
00000000: 725b 1cbd 069d 7abd d68b 90bc 8e3d 2bbd
00000010: a847 3f3d 3c31 be3c 5ea3 abbc cf31 4a3c
00000020: 2a95 523d 479c e7bc 8b9e 25bd 72f9 523d
00000030: 01ad 39bd f19d 893c c06d 273d a428 e9bb
00000040: 4ad7 cd3c 37fa 413d 40d8 97bb e57d ec3c
00000050: f066 873b f681 2f3d a90b c63c edd7 ccba
00000060: ccee 1bbd 1515 723d f71e 903c 2f5f e23c
00000070: 0c2a 45bd 79ca 253d fe6f d13c 136e 34bd
00000080: 8dc7 4bbd c08d febc 5e31 60bd a0bb 87bc
00000090: 11dd e3bb 1543 16bd 6067 503c 54dc 043d
000000a0: 7e48 2dbc ec69 4bbd 4924 36bd 580d 6dbd
000000b0: c212 78bd 89b3 76bd a431 69bd 5914 b4bc
000000c0: 80f8 b33a d1f8 563d 062e 053d d35d 883c
000000d0: fa9b 753d 4448 3e3d 9446 b9bc 6c52 41bd
000000e0: 44a0 c73c 4515 3fbd b932 6a3d 4a82 5d3d
000000f0: 3420 ecbc ee4a 233d 6eee 6f3d b047 bb3c
00000100: fd0d 42bd 877e 7b3a 7638 663d 7d9c 75bd
00000110: 2e30 04bd d3e5 1dbd 0041 7dbb 42c1 15bd
00000120: e307 e7bc ef4a 68bd 7246 323d 122f 033d
00000130: 804c 273d 1348 3f3d 5055 03bd e6d1 b9bb
00000140: 00aa 073a 08bf d6bc f723 63bd 8b30 30bc
00000150: 4cc1 00bc 5a17 37bd 9331 a73c 8e05 2d3d
00000160: 63a4 69bd d176 2dbd 5a70 a23c c63c 683d
00000170: 8549 8d3c 4def 47bc bc60 83bc a8c0 ee3c
00000180: 1879 d6bc 5fea efbc 051b 8dbb b432 7ebd
00000190: c775 ce3c 0cff 1a3d 9ef1 833c 0325 2cbd
000001a0: 96c9 6b3c 4f78 2b3d 3d24 7dbd 3b76 48bd
000001b0: 68b1 573d c3b8 62bd 3794 eabc 0a89 2abd
000001c0: 9a45 6d3d b877 9c3c 80da 0dbc cd5a 8abc
000001d0: e78d 78bd 7cc4 0ebd 05f3 f33b 9d7f 5cbd
000001e0: e147 5fbc ee2a e8bb 1c7a 123b 2f62 aa3c
000001f0: a403 39bd 507a ab3b 9bbe 03bc 1b43 9f3c
00000200: c8f8 8a3c a6ad d8bb efd3 9b3c 8ef3 773d
00000210: 4a0a a53c d7a3 a4bc 64bd 1cbd 2bcd fe3c
00000220: 146e 803c c8e5 7b3c b621 6b3d 00f2 c0bc
00000230: 9f7c 603d 1815 10bd 177d 26bb cc68 403d
00000240: c808 0dbc e85d 743d f89b ed3c 58ad 54bd
00000250: e02a c73c 9796 203c fe22 88bc 08ab 1c3d
00000260: b029 00bd b13e 753c 08cb 983c 44ed 9fbc
00000270: 0d20 f9bb 2881 6b3d 66f4 4a3d 6648 1ebd
00000280: 4d9c 56bd bd04 713d 1869 4a3d fb8f 28bd
00000290: 1f8f 3ebc f027 01bc 6896 3f3a 4a80 503d
000002a0: 7364 993c 64f4 9cbb e9bf 333d c03c d23b
000002b0: d905 443d dd85 643d 772b f4bc f27c 61bd
000002c0: 9e7a 39bd af3d 043c 9220 f4bb 740b 52bd
000002d0: 5034 41bd b31d e0bc 485d 873c 2943 673c
000002e0: a996 07bd 84b2 3dbd 58bb ac3c 6258 693d
000002f0: a9f6 2fbd f45c 67bd 51db 2fbd 356d 043d
00000300: d23b 65bd 089a ccbc ed53 6dbd dc7b 483c
00000310: e5ed 2d3c 3ed5 15bd caff 60bd ee58 3fbd
00000320: 6d16 703d fa3e 753c 5044 113c e09a dd3c
00000330: df4a c23c 7a46 58bc 8476 223d 9fa8 1dbd
00000340: 33f9 7a3d 7859 a6bc fcec f8bc d9b4 9bbc
00000350: 6722 3fbd 655f 37bc fa9a 7d3d 66c9 5abd
00000360: 09fe 973c 051a 97bc a2f0 573d fc1c 7bbd
00000370: 1ef5 5dbb dbc2 1dbc 5bc6 bd3c b599 1cbd
00000380: adad 73bd 00bb 703c 8873 7cbd 1227 183d
00000390: 84ee 203d 2998 adbc f190 e93c 1893 f23c
000003a0: b85c 69bd 2428 f4bc e95e fbbc 7364 86bc
000003b0: 857c 0f3d 0fce 643d ed0f 403d b09b 493d
000003c0: b5e5 09bd d86e 6f3d 296c d8bc 0891 10bd
000003d0: 6236 8c3c 2a19 1ebd 0440 c1bc 15a1 79bd
000003e0: a997 63bd f6e6 333c 04af 7e3d 6065 2bbb
000003f0: e0eb e7bb aaf4 5a3d 9958 573d 8a5a d5ba
-0.038173147 -0.061184905 -0.017644804 -0.04180675 0.046699196 0.023216836 -0.020951923 0.012340977
0.051411785 -0.028272761 -0.0404344 0.05150742 -0.045331005 0.016798945 0.04087615 -0.0071154404
0.025127072 0.047357764 -0.0046339333 0.028868625 0.004132144 0.04284855 0.024175482 -0.0015628316
-0.03806953 0.059102137 0.01759289 0.027633278 -0.048135802 0.040476296 0.025566097 -0.044050287
-0.049750853 -0.031073451 -0.05473458 -0.016568959 -0.0069538434 -0.03668507 0.012719959 0.032436684
-0.0105763655 -0.04966156 -0.044468198 -0.057874054 -0.060564764 -0.06022981 -0.056932107 -0.021982359
0.0013730675 0.052483384 0.032514594 0.016646301 0.059963204 0.046455637 -0.022616662 -0.047197744
0.024368413 -0.046651144 0.05717728 0.05407933 -0.02882395 0.03986638 0.058576994 0.022861332
-0.04737662 0.0009593744 0.05620619 -0.059963692 -0.03227251 -0.038549256 -0.003864348 -0.036561258
-0.028202003 -0.056712087 0.043524213 0.03202731 0.04084444 0.046699595 -0.032063782 -0.005670774
0.0005175173 -0.026214138 -0.05545422 -0.010753761 -0.007858586 -0.044700004 0.020409381 0.042241625
-0.057041537 -0.04234964 0.019828964 0.056698583 0.01724697 -0.01220305 -0.016037337 0.0291446
-0.026180789 -0.029286562 -0.0043061995 -0.062060073 0.025202645 0.037840888 0.016106423 -0.042027485
0.014391324 0.041862782 -0.061802138 -0.04894088 0.052659422 -0.055351984 -0.028635127 -0.041634597
0.057927705 0.019100055 -0.0086580515 -0.016889 -0.060682204 -0.03485535 0.0074447417 -0.05383264
-0.013627977 -0.0070851957 0.0022350615 0.02079877 -0.045169488 0.0052330866 -0.008041049 0.019441178
0.016964331 -0.0066124974 0.019021956 0.060535006 0.020146508 -0.020097656 -0.038266554 0.031103691
0.01567749 0.015374608 0.057405196 -0.023552895 0.054806348 -0.035176367 -0.002540415 0.046974942
-0.008608051 0.05965987 0.029005036 -0.051923126 0.024312437 0.009801528 -0.016618248 0.038249046
-0.031289756 0.01496856 0.0186515 -0.019522317 -0.0076026977 0.05749622 0.049549483 -0.038643263
-0.052395154 0.05884241 0.04941663 -0.041152935 -0.011630802 -0.007883057 0.0007308484 0.050903596
0.018724656 -0.004789876 0.04388419 0.0064159334 0.04785714 0.055791724 -0.029805882 -0.055050798
-0.045282952 0.008071347 -0.0074501717 -0.051280454 -0.04716903 -0.027357912 0.016523972 0.014115133
-0.033102665 -0.046312824 0.021085426 0.056969054 -0.042959843 -0.05648513 -0.042933766 0.03233071
-0.055965252 -0.024975792 -0.057941366 0.012236562 0.0106158005 -0.036580317 -0.05493144 -0.04671567
0.058615137 0.014968628 0.008866385 0.02705139 0.023717342 -0.013200397 0.039663807 -0.038490888
0.06127281 -0.020306334 -0.03038644 -0.019007133 -0.046663668 -0.011192177 0.061915375 -0.053414725
0.01855375 -0.018445024 0.05271972 -0.06130694 -0.0033868025 -0.009628977 0.023165872 -0.038232524
-0.059491802 0.014693022 -0.061633617 0.037146635 0.039289966 -0.02119072 0.028511496 0.029611155
-0.05697319 -0.029804297 -0.030684905 -0.01640532 0.03503086 0.055860575 0.046890188 0.04922074
-0.03366633 0.05845532 -0.026418762 -0.035294563 0.017115775 -0.038598217 -0.023590095 -0.060944635
-0.055564556 0.010980358 0.062178627 -0.0026152954 -0.007077679 0.053455986 0.052574728 -0.0016277593

fc2.bias f4 [128]
00000000: 5209 463d 37d3 41bd 3b57 0bbd eee1 0d3d
00000010: ee51 323d 18d8 933c b68c 073d 8703 7a3d
00000020: 9115 e83c 0087 9abc 2d46 5bbd 727b 073d
00000030: d82d 9cbc 7b3e 02ba 7958 cdbc 2cfb 18bd
00000040: f5b7 753d f300 1ebc c01b 393d 6494 31bd
00000050: f9e2 3dbd 720d 48bc 6a56 e73c 0889 6b3c
00000060: 0561 473d 71b7 1f3d 941b 0cbd 8fe2 72bd
00000070: 8f88 2ebd 502c 713c 5897 8cbc b37d 363d
00000080: 755a 25bc 1283 f63c 3cc6 c7bc 21e2 313d
00000090: e8a3 833c 9233 10bd ee22 623d 1c09 94bc
000000a0: 5c0c 95bc d2b1 bbbc e2de 093c e55c d93b
000000b0: ec30 7fbd 28d4 2c3b a4d5 38bd 7d76 cabc
000000c0: f5cc 573c c9a9 2c3d 1dac 28bd 5107 c9bb
000000d0: 5a2b 8e3a 4daf 663c 160d 793d 1132 873c
000000e0: 1e9a 6a3d 4096 98bb fc15 a23c 9dce 8ebc
000000f0: 9465 78bd 303b cf3c 7a9f 4f3d e3ec d03c
00000100: f36f 3dbd 9c0b 2a3d ea04 423d 2c35 993c
00000110: 43a6 d6bc f8c9 2f3c e582 1bbd 7a98 be3c
00000120: 8c24 5ebd aa3e 023a a03a 3b3d 1065 b9bb
00000130: 6ad9 2f3d 4ad2 a93c 15be 54bc deb8 37bb
00000140: af71 1a3d c6cc a13c 5755 7f3d 02ec 8abc
00000150: 9917 e9bc 20de 13bd 43c9 1e3d 0aba a9bc
00000160: 6cda 393d 495c 523d 8033 0e3d d28f f9bc
00000170: 74d5 28bc f427 5d3c 16fd 8e3c f0ad 19bd
00000180: a508 783d 6996 05bd d2e3 a73c e6b9 32bd
00000190: e3d1 403d 9051 54bc 0204 4dbd 15c3 1cbc
000001a0: e4c7 223d e1bd 6a3d 9c79 833c 8cbc 723d
000001b0: 5204 78bd 6429 7f3d 47d5 bbbc b046 9ebc
000001c0: c735 493b 4f96 5c3d b171 333d 8a16 53bd
000001d0: 4915 eb3c 70c2 44bc 6780 a43c 1720 2abd
000001e0: fdd6 9e3c ab5b a23c 46f9 033d 7c5a 7f3d
000001f0: e810 7abd cc09 0dbd a0ec 6dbd 0e04 813c
0.048348732 -0.04732057 -0.034018736 0.03463929 0.043535165 0.018047377 0.033093177 0.06103852
0.028330596 -0.018863201 -0.05353372 0.03307671 -0.019064829 -0.0004968417 -0.025066601 -0.03734891
0.05998989 -0.009643781 0.04519248 -0.043354407 -0.046359036 -0.012210237 0.028239448 0.0143759325
0.04867651 0.038993303 -0.034205988 -0.059298094 -0.0426107 0.014720038 -0.01716201 0.04455347
-0.010092367 0.030091796 -0.024386518 0.043428544 0.016069368 -0.03520543 0.055209093 -0.01807075
-0.01819437 -0.02291194 0.008414956 0.0066333883 -0.062302515 0.0026371572 -0.04512562 -0.024714703
0.013171424 0.042154107 -0.041179765 -0.0061349054 0.001084666 0.014079881 0.060803495 0.016503366
0.057275884 -0.004656583 0.019785874 -0.017432505 -0.060643747 0.025296777 0.050689198 0.025503581
-0.04624934 0.041514978 0.047367968 0.018702112 -0.026202327 0.010729305 -0.037966628 0.023266066
-0.054234073 0.0004968444 0.045710206 -0.0056577995 0.04293195 0.020730156 -0.012984772 -0.0028033773
0.037706073 0.019750964 0.062337246 -0.01695824 -0.028453635 -0.036100507 0.038766157 -0.020718593
0.04537432 0.05135754 0.034717083 -0.030464087 -0.010304797 0.013498295 0.017454665 -0.037519395
0.06055512 -0.032614145 0.020494375 -0.043634318 0.047075164 -0.012958899 -0.05005265 -0.009567996
0.03974141 0.05730999 0.016049199 0.059261844 -0.060550995 0.062295333 -0.022928847 -0.019320816
0.003070222 0.053854283 0.043809596 -0.051535167 0.028696673 -0.012009248 0.020080758 -0.04153451
0.019389624 0.019819101 0.032220148 0.062342152 -0.06105128 -0.03443317 -0.05808699 0.015749004

fc3.weight f4 [2, 128]
00000000: a700 aebd c4c6 54bb f921 36bd c8f5 5dbd
00000010: daac 7b3d 7497 63bc 90e1 cc3c bffc 5a3d
00000020: 70e1 afbd da16 8abd 6845 f03c 9db2 97bb
00000030: 673e 9a3d 966d 88bd 85cd 84bd 2cd6 9cbd
00000040: ad89 09bd e3f2 93bc a6fe 243d 1f18 25bd
00000050: 6d5e a9bc 7a04 b5bc 916b 83bd d85a b83c
00000060: 4f0c 143d d1f6 613d ea3b 14bd 3e90 993b
00000070: 45a2 5abc c635 463d b4e4 2abd 8afe 5abc
00000080: 44bd 15bc 4af0 98bd f6cd 06bd 1e3f e5bc
00000090: df38 a33d 70ab a43b f6cf 23bd 8e21 65bd
000000a0: e20f 80bd 0624 ad3d 1f7d 6ebd 403b 07bd
000000b0: 19b4 5dbc 38f8 9d3d 5092 4fbd c6b6 a3bd
000000c0: eadd 2fbd 8704 363d 9acd 71bc 2a3e b8bb
000000d0: 8b9e 51bd af09 3a3b 8596 943b c23a adbd
000000e0: 467b 4d3d 4237 6b3d bf14 93bb d779 acbc
000000f0: 8328 40bd 0057 e439 4034 523d 7d81 a2bd
00000100: ca39 91bd 1226 c03d 52e2 e0bc bc67 26bd
00000110: e8aa 0f3d a389 b2bd 195a 8f3d 3bee a0bb
00000120: fce5 71bd 3675 10bd bb3d 91bd d59b 973d
00000130: 6ae5 4d3d 2217 593c ad32 ff3c f2d3 04bd
00000140: 5193 613d 97f5 873d 120f 513d 5a66 c9bb
00000150: e2a8 883d c7c1 053b 9aa0 4c3d d247 15bc
00000160: 02e3 e53c 6c32 d2bc 9a5f 87bd 0a75 e03c
00000170: 9842 9b3d 60a7 fbbc 64eb 04bd 9af0 8f3d
00000180: 50a3 4bba dbe8 a13d c5d0 21bd 8e91 5a3d
00000190: 6e66 87bd ddec 1fbd decf 563d 6d21 703c
000001a0: 43d3 f43c cfea 4a3d 170d cebb b7ce 01bd
000001b0: 8f6f 91bd 7581 95bc d929 55bd 2633 833d
000001c0: 8e6b 843d c4b5 263d 50e5 de3c 52f3 833d
000001d0: da9d 273d 0044 993c 3d96 afba ca61 983d
000001e0: 6216 b83c a03d b3bd a134 4a3d 98ea a7bd
000001f0: 497d 32bd e317 aa3d 913d 393d b5a0 783c
00000200: b42c 83bd 1450 573d 57e0 1fbd 0c5e 773d
00000210: 8215 a43d 878c 953d 4039 0e3b eee4 a23d
00000220: 3ff9 b1ba 4a46 ab3d d3cc f13c 24ed b63c
00000230: 18b7 0a3d c05c 84bc fdc6 603d 7fca b0bc
00000240: 69f2 ed3c 66d0 5a3d 761b 393d 61cd cbbd
00000250: 23c0 113d 3d4f 3dbd 0c7c 583c 0dd3 2ebd
00000260: 65b4 54bd 8902 2dbd 202f 53bd 187e a6bd
00000270: 2410 1abd 58fa 5e3c 8ee5 84bd 8a28 a9bc
00000280: 7f3f 58bd c755 253d 823e 6dbd bc3a 2ebc
00000290: ec04 e43c 8c57 9f3c d62f a6bd cc94 b7bc
000002a0: 55c4 9ebd 298b 41bc c6e5 dfbb 736d a2bd
000002b0: 3174 163d 2de2 f9bc b182 84bd 9f3d a6bd
000002c0: b5f3 143d 33af b33d 683a 2ebd 3c82 a6bd
000002d0: 4b48 ac3d ddc8 bd3c f83b 853d 916f 3c3c
000002e0: 1102 0cbb 70eb 493c e9d0 25bd 5add 71bd
000002f0: 44c0 c23c 1074 533c 4b78 f83c e06e 96bd
00000300: f42a 3bbd a794 ccbb aee8 c2bd 4009 7ebd
00000310: 0913 d5bc c48f d33c 50c2 b6bc 8ff0 da3d
00000320: 4e39 5b3c 535b 4c3d 9fcc 083d 1e2b 673d
00000330: c52a 3dbd 8b77 7bbd 8ac0 643d b3ad 633d
00000340: f449 423d d77a 88bc 7065 e4bc 779e 41bd
00000350: 9f40 62bc 94fd 00bd 61f9 3b3d 3fb4 edbc
00000360: 273a 2ebd b79e d0bb f647 3d3d 5341 4abd
00000370: 1cd4 efbc e210 e13c 5ebf 43bd ca21 3ebd
00000380: e026 19bd 5d06 93bd 676e 54bb 7ef5 243d
00000390: faca 54bd 1510 ab3d 84ce 8f3c 9000 fb39
000003a0: 5b14 343d ab3f 6d3a 613a f7bc b060 9e3c
000003b0: b3c2 d03c d016 c43c 09c2 7d3d 98cc 45ba
000003c0: f71d 0d3d 8fcb fdbc b43b c5bc 5865 6b3d
000003d0: 5991 703d d43f 97bd 34dd ca3b 1b59 8f3d
000003e0: fd84 0ebd 7f89 a03d 222c 88bd bfc7 843d
000003f0: aa0a e1bc b8ea efbc edaf 8a3d 771c 84bd
-0.08496218 -0.0032467106 -0.044465993 -0.054189473 0.06144414 -0.01389109 0.0250099 0.053463694
-0.08587921 -0.0674264 0.02932997 -0.0046294467 0.075314336 -0.06661527 -0.06484512 -0.076580375
-0.033578563 -0.018060153 0.040281914 -0.040306207 -0.020674909 -0.022096861 -0.06417001 0.022504255
0.03614455 0.055167023 -0.03618995 0.0046863845 -0.013344352 0.048391126 -0.041722015 -0.013366351
-0.009139363 -0.074677065 -0.032911263 -0.027984198 0.07969832 0.0050253198 -0.03999325 -0.055940203
-0.062530294 0.084541366 -0.058224794 -0.03301549 -0.013531708 0.077133596 -0.050676644 -0.07993846
-0.042936243 0.04443791 -0.014758492 -0.005622645 -0.05117659 0.002838712 0.004534545 -0.08458473
0.05016639 0.057425745 -0.004488557 -0.021054192 -0.046913635 0.0004355237 0.05131936 -0.07934854
-0.070911005 0.09382261 -0.027451668 -0.040626273 0.0350751 -0.08717658 0.06999607 -0.004911212
-0.05905722 -0.03526803 -0.07091852 0.074027695 0.050267614 0.013250144 0.031152094 -0.03242869
0.055072132 0.066386394 0.051039763 -0.0061462345 0.06672837 0.002040969 0.04995785 -0.009111362
0.028062347 -0.025658809 -0.066100314 0.027399559 0.07581061 -0.030719459 -0.03245105 0.07028313
-0.0007768171 0.07905742 -0.03950574 0.053361468 -0.06611334 -0.03904425 0.05244433 0.014656407
0.029885894 0.049540337 -0.0062881815 -0.03169128 -0.07101356 -0.018250206 -0.052041862 0.0640624
0.06465827 0.04070069 0.027208954 0.06442894 0.040922023 0.018709183 -0.0013396215 0.07440527
0.02247161 -0.087519884 0.049366597 -0.08199042 -0.043576512 0.08305337 0.04522473 0.015175034
-0.06405011 0.052566603 -0.039032307 0.060392424 0.08011915 0.07302194 0.0021701604 0.07953821
-0.001357831 0.08363016 0.029516613 0.022329874 0.033866018 -0.016157508 0.05487727 -0.021580933
0.029046254 0.0534214 0.045192204 -0.09951282 0.035583626 -0.046218146 0.013213169 -0.042681742
-0.05192985 -0.042238746 -0.051558614 -0.08129519 -0.03761305 0.013609491 -0.064890966 -0.020649213
-0.05279493 0.040365007 -0.05792094 -0.010634121 0.027834378 0.019450925 -0.08114593 -0.022409819
-0.07752291 -0.0118129635 -0.006832811 -0.07931032 0.036731903 -0.030503357 -0.0647024 -0.08117222
0.03636523 0.08773651 -0.04253617 -0.08130309 0.08412226 0.023167068 0.06505579 0.011501209
-0.0021363536 0.012324199 -0.040482435 -0.059048988 0.02377332 0.012906089 0.030330798 -0.073453665
-0.04569526 -0.0062433067 -0.095170364 -0.06202054 -0.026010053 0.025825389 -0.022309452 0.10690414
0.013380362 0.04989178 0.033398267 0.056437604 -0.046183366 -0.061393302 0.055847682 0.055585574
0.04743381 -0.016660137 -0.0278804 -0.047270264 -0.013809352 -0.03149183 0.045892123 -0.029016612
-0.042535927 -0.0063665765 0.046211205 -0.049378704 -0.029275946 0.02747387 -0.047789924 -0.046418943
-0.03739059 -0.07178948 -0.0032414438 0.040273182 -0.051951386 0.08352677 0.017554529 0.0004787487
0.043964725 0.000905032 -0.030179204 0.019333214 0.025483465 0.02393666 0.061952624 -0.00075454405
0.034452405 -0.030980853 -0.02407632 0.057469696 0.058732364 -0.07385221 0.0061909202 0.069994174
-0.034794796 0.07838725 -0.06649043 0.06483411 -0.027470905 -0.029286727 0.067718364 -0.06450742

fc3.bias f4 [2]
00000000: 50da 94bb 3caa aebd
-0.0045426264 -0.085285634

loss_fn.weight f4 [2]
00000000: cdcc cc3e 9a99 193f
0.4 0.6
