code/2branch_cut1_uniform_2000pt_abtest/DNN_dome_lr0.0001_epoch_test.pth (torch, 313131 bytes, 7 tensors)

fc1.weight f4 [256, 172]
0	0xbc5e35dd	-0.013562647
1	0x3b03ebfb	0.002012967
2	0x3d7a81c7	0.06115892
3	0x3c0c8c10	0.008578315
4	0xbd159b75	-0.03652521
5	0x3c910226	0.01770122
6	0xbd38efee	-0.04515069
7	0x3c4fa6be	0.012674032
8	0x3d526c34	0.05137272
9	0xbd96c5a4	-0.07361916
10	0x3d8cd270	0.06876075
11	0xbd1cb8ea	-0.038262285
12	0x3cdaa542	0.02669013
13	0xbd3dbec7	-0.046324518
14	0x3c98dc26	0.018659662
15	0xbd3dc11a	-0.046326734
16	0x3b66efe2	0.0035238196
17	0xbc8479ad	-0.0161713
18	0x3bc14658	0.005898278
19	0x3d6c76b2	0.057730384
20	0xbbb30f7a	-0.0054644914
21	0xbd8fe5d5	-0.07026259
22	0xbd891650	-0.06693709
23	0xbd5923d1	-0.053012673
24	0x3b043040	0.002017036
25	0x3be8e482	0.0071073184
26	0x3ce42030	0.02784738
27	0xbcd13290	-0.025536805
28	0x3d4c9f4c	0.049956605
29	0x3d013f78	0.03155467
30	0x3d723230	0.059129894
31	0xbc855f70	-0.01628086
32	0x3cab0585	0.020876655
33	0xbd8d171f	-0.068891756
34	0xbd1ea572	-0.038732
35	0xbd899fc8	-0.06719929
36	0xbd8e9fd4	-0.069640785
37	0x3d6c6b4c	0.057719514
38	0xbb4ddf33	-0.0031413555
39	0xbd9b566e	-0.075848445
40	0x3c881ff2	0.016616795
41	0xbd1a32f2	-0.03764624
42	0xbca97ad5	-0.020688454
43	0x3d28b620	0.041189313
44	0x3d107498	0.035267442
45	0x3cc01472	0.02344725
46	0xbd1b1502	-0.03786183
47	0xbd7b54c1	-0.061360124
48	0x3d845388	0.06461245
49	0xbd3d91bb	-0.046281558
50	0x3d44efb4	0.04808016
51	0xbd92a1c2	-0.07159759
52	0xbc8231e6	-0.015892934
53	0x3d2d2ac0	0.042277098
54	0xbd4a5e4e	-0.049406342
55	0xbc5d7c72	-0.01351844
56	0xbc84c52a	-0.016207296
57	0x3cdf736c	0.027276717
58	0x3d88b24c	0.066746324
59	0xbd962391	-0.073310025
60	0xbcc228c9	-0.023701089
61	0x3c548562	0.012971254
62	0x3cfceff1	0.030876132
63	0xbd2cba72	-0.042169996
64	0xbd293393	-0.04130895
65	0x3d895825	0.06706265
66	0xbd9ba253	-0.0759932
67	0x3caf4973	0.021397328
68	0x3d09a12f	0.033600982
69	0xbceabce9	-0.028654533
70	0x3d7043f8	0.05865857
71	0x3d9c2763	0.076247
72	0xbd234025	-0.039856095
73	0xbc999f2b	-0.018752655
74	0x3d572c6e	0.052532606
75	0x3c9616b9	0.018321382
76	0xbd79e1f6	-0.06100651
77	0x3c8c3724	0.017116137
78	0xbcdd8b71	-0.02704403
79	0x3d8f6f2f	0.070036285
80	0x3d8cb1de	0.06869863
81	0x3cf2987c	0.029613726
82	0x3d8f9cd8	0.070123374
83	0xbcf60d71	-0.030035706
84	0xbc308299	-0.010773324
85	0xbc24c54a	-0.010056803
86	0x3ca8007e	0.020508047
87	0x3b631829	0.0034651852
88	0xbd9a6f0c	-0.07540712
89	0x3cc02649	0.023455756
90	0x3c05d02c	0.008167308
91	0xbd0a952a	-0.03383366
92	0x3c6d0d1b	0.014468457
93	0xbd660397	-0.056155767
94	0x3d3b4ebc	0.045729384
95	0x3d12b623	0.03581823
96	0xbcad8fe1	-0.02118677
97	0x3d561f8c	0.05227618
98	0xbd740b6f	-0.059581216
99	0xbcf9ef31	-0.030509563
100	0x3d86791c	0.065660685
101	0xbb2efdf9	-0.0026701672
102	0x3d3b7fac	0.045776054
103	0xbc1594be	-0.009129701
104	0xbc18d7b1	-0.009328769
105	0xbd8b94a4	-0.0681546
106	0xbd5c47fa	-0.05377958
107	0x3d733a4d	0.05938177
108	0x3c5840f9	0.013199084
109	0x3c6498e4	0.013952468
110	0x3c904bcd	0.01761427
111	0x3cb3acab	0.02193292
112	0x3cbceb44	0.023061402
113	0xbd76a046	-0.060211442
114	0x3d3dbe25	0.046323914
115	0xba6c1c68	-0.00090069184
116	0xbd62a245	-0.055330534
117	0xbc8adee2	-0.016951982
118	0x3d4d8704	0.05017759
119	0x3cd1ead7	0.025624676
120	0x3d7e819d	0.062135328
121	0x3d2763b7	0.04086658
122	0xbd875ee3	-0.06609895
123	0x3d352475	0.04422422
124	0xbc3682bb	-0.011139567
125	0x3d569ffb	0.052398663
126	0xbcc658ef	-0.024212329
127	0xbcf535fa	-0.029932965
128	0x3c6f1117	0.014591477
129	0xbc0b1866	-0.008489704
130	0x3d92aa11	0.07161344
131	0xbd22c7ad	-0.039741207
132	0x3cb23a60	0.021756351
133	0xbc6623e6	-0.014046645
134	0xbd06e93e	-0.03293728
135	0x3b53a826	0.003229627
136	0xbd9a47c7	-0.07533222
137	0xbd809ea2	-0.06280257
138	0xbc7c6f0e	-0.015407337
139	0x3d4b2649	0.04959706
140	0x3d16355a	0.036671974
141	0xbd9274fb	-0.071512185
142	0x3d971d29	0.07378609
143	0x3d386e08	0.04502681
144	0xbd3ccf3a	-0.046096064
145	0xbd3fd721	-0.046836022
146	0xbcc5ff44	-0.024169572
147	0x3cb2c21d	0.021821076
148	0xbd2c6038	-0.04208395
149	0xbcd02f4e	-0.025413182
150	0x3ca2d3c2	0.019876365
151	0xbd6421f5	-0.055696446
152	0x3bd39e17	0.0064580548
153	0xbce0c139	-0.027435886
154	0x3d5491d9	0.051896904
155	0x3c9b7807	0.018978132
156	0xbd7c7910	-0.06163889
157	0x3d9906b6	0.07471983
158	0xbc8634a2	-0.01638252
159	0x3c699c34	0.014258433
160	0x3d3673ad	0.04454391
161	0xbbc3e5ae	-0.0059783077
162	0xbce1d41f	-0.027566968
163	0xbca4866e	-0.020083632
164	0x3d9ca05e	0.07647775
165	0x3d3726fc	0.044714913
166	0x3ba116e0	0.004916057
167	0xbd156916	-0.03647717
168	0xbc9d51a4	-0.019203968
169	0xbd82aa82	-0.06380178
170	0x3d506310	0.050875723
171	0xbc87822e	-0.016541567
172	0xbcf30850	-0.02966705
173	0xbc02b918	-0.0079787
174	0x3d3ca50c	0.04605584
175	0xbce1ba2c	-0.027554594
176	0x3cc35834	0.02384577
177	0xbd75f422	-0.060047276
178	0xbc4f0518	-0.012635492
179	0xbc2c6620	-0.010522395
180	0x3d4f3a4c	0.050592706
181	0xbbacf9f0	-0.0052788183
182	0x3cff1a34	0.031140424
183	0xbc484db0	-0.012225553
184	0xbca98fa6	-0.02069838
185	0xbd17f6c9	-0.037100587
186	0x3d8f00dc	0.06982586
187	0xbd3e59ee	-0.046472482
188	0xbd076f88	-0.03306535
189	0x3d4878b4	0.048943236
190	0xbd5efc05	-0.054439563
191	0xbcdf64b8	-0.027269706
192	0x3d7d94a8	0.061909348
193	0xbd12acf8	-0.035809487
194	0x3d395b88	0.045253307
195	0xbd05e01a	-0.032684423
196	0xbd9a01d1	-0.07519878
197	0x3b948430	0.0045323595
198	0xbccc9860	-0.024975002
199	0x3d2a71e4	0.04161252
200	0x3d4e63bc	0.050388083
201	0x3d0c4184	0.034242168
202	0xbd8d1a4e	-0.06889783
203	0xbd824cb7	-0.063622884
204	0xbd0441f4	-0.03228946
205	0xbd8955fe	-0.06705855
206	0x3c9c2c10	0.01906398
207	0xbd7758b7	-0.06038734
208	0x3c99f124	0.018791743
209	0x3cfd28a4	0.030903168
210	0xbd82c4c8	-0.06385189
211	0x3d6527f0	0.05594629
212	0xbd0c0333	-0.03418274
213	0x3d883f04	0.06652644
214	0xbc82207a	-0.015884627
215	0xbd10a552	-0.03531391
216	0xbd379059	-0.044815395
217	0xbd8d1c52	-0.06890167
218	0xbd8f237e	-0.069891915
219	0x3d85f3e6	0.065406606
220	0xbcdd0f36	-0.026984792
221	0x3d45db46	0.04830482
222	0x3d970802	0.07374574
223	0xbd027850	-0.03185302
224	0xbd4aed4c	-0.04954271
225	0x3ca11c54	0.019666828
226	0x3b890fb0	0.0041827783
227	0xbd5b125a	-0.0534843
228	0x3c7e1030	0.015506789
229	0xbcad207e	-0.021133658
230	0x3ce2c104	0.027679928
231	0xbb5c2ac0	-0.0033594817
232	0x3d35fffc	0.04443358
233	0xbd72267d	-0.059118737
234	0xbd98d1db	-0.07461902
235	0xbb4b4fe0	-0.003102295
236	0x3d936ed4	0.07198873
237	0x3cd684b8	0.026186332
238	0xbd79d579	-0.0609946
239	0x3cc4246c	0.023943149
240	0x3bc51270	0.006014161
241	0xbd793ffa	-0.06085203
242	0xbd066264	-0.032808676
243	0x3bd46720	0.00648202
244	0xbc9c7994	-0.019100942
245	0xbcc707ae	-0.024295654
246	0x3d6fc0c0	0.05853343
247	0x3d45cb5a	0.048289634
248	0x3d96208a	0.07330425
249	0xbcf0fc7a	-0.029417265
250	0x3d09645e	0.033542983
251	0x3b46d4a0	0.0030339137
252	0xbc337688	-0.010953553
253	0xbd054ac9	-0.032542024
254	0xbb84d240	-0.004053384
255	0xbd8a3f77	-0.06750386

fc1.bias f4 [256]
0	0x3cfdb2da	0.030969072
1	0x3d6087c0	0.05481696
2	0xbd0df96c	-0.034661695
3	0xbd042b93	-0.032268118
4	0x3d64ba19	0.05584154
5	0x3d9b415e	0.07580827
6	0xbbec3d5f	-0.0072094644
7	0xbd125545	-0.03572585
8	0x3d141f5c	0.03616272
9	0x3d2d44b7	0.04230186
10	0xbd5eebf6	-0.05442425
11	0xbd246910	-0.040139258
12	0xbbe69cb4	-0.0070377234
13	0xbc97103e	-0.018440362
14	0xbd143cbf	-0.036190744
15	0x3b03e2af	0.0020124128
16	0xbc40f1f0	-0.011776432
17	0xbd1357d5	-0.035972435
18	0x3ba2d670	0.0049694106
19	0xbd7002bb	-0.058596354
20	0xbd1140f0	-0.03546232
21	0xbd4d24c0	-0.050083876
22	0x3aa23a52	0.0012377
23	0x3bcb51ec	0.006204834
24	0x3c4a40a8	0.012344517
25	0x3c1f1a3b	0.009710844
26	0xbd9b268b	-0.07575711
27	0x3ce60f58	0.028083488
28	0xbc7b3a1e	-0.01533368
29	0x3c49f653	0.012326795
30	0x3d932754	0.071852356
31	0x3d01579e	0.0315777
32	0x3d882fa4	0.06649712
33	0x3cf0d578	0.029398665
34	0xbd672bf8	-0.056438416
35	0xbd577e71	-0.05261082
36	0x3c5e9b10	0.0135867745
37	0x3d06e377	0.03293177
38	0x3d3aec5e	0.045635574
39	0xbd2be6d8	-0.041968197
40	0xb8ef1da5	-0.0001140193
41	0x3cbf2894	0.023334779
42	0xbd0cbffe	-0.034362786
43	0xbd4e58ea	-0.050377764
44	0xbbb6a239	-0.0055735377
45	0x3d0f479b	0.034980398
46	0xb98307d3	-0.00024992097
47	0xbc43e31c	-0.011956003
48	0x3ad534c0	0.0016266331
49	0x3d41ff35	0.047362525
50	0x3b167780	0.002295941
51	0xbd4c38c3	-0.04985882
52	0x3c8ef870	0.017452449
53	0xbd5881b9	-0.05285809
54	0xbd318264	-0.04333724
55	0x3d0dd812	0.03462989
56	0x3d1b381f	0.037895318
57	0xbca97e15	-0.020690003
58	0x3ca94b39	0.020665752
59	0xbd6dc2a9	-0.05804697
60	0x3c831250	0.015999943
61	0xbcfe0a8d	-0.03101089
62	0xbc8c65ea	-0.01713844
63	0xbac47e33	-0.0014991224
64	0xbd440e54	-0.047865227
65	0xbd203b52	-0.039119072
66	0xbd4ba0ef	-0.049714025
67	0xbb6d2009	-0.0036182425
68	0xbd59dd9f	-0.05318987
69	0xbc761424	-0.01501945
70	0xbb7bdf20	-0.0038432553
71	0x3d25363e	0.040334933
72	0x3c8256c1	0.015910508
73	0x3b4f7717	0.0031656676
74	0xbcb8d366	-0.02256174
75	0xbb9db620	-0.0048129708
76	0x3d047b67	0.03234425
77	0x3bd95787	0.0066327485
78	0xbc592cda	-0.013255322
79	0xbd0ca6a4	-0.03433861
80	0xb9b97bac	-0.00035378092
81	0x3cea3023	0.028587407
82	0x3caf3c19	0.021390961
83	0xbd91c146	-0.07116942
84	0xba2aa882	-0.0006510095
85	0x3d9b6f44	0.075895816
86	0x3d98aa60	0.074543715
87	0x3d33f0f2	0.043930955
88	0xbd44e029	-0.04806534
89	0xbd84f38b	-0.06491765
90	0xbd78504f	-0.060623463
91	0xbcc890a2	-0.024483029
92	0xbc25d293	-0.010121006
93	0x3d257c94	0.04040201
94	0x3b1ec3c0	0.0024225563
95	0xbd8a6a1b	-0.06758519
96	0x3cfa8930	0.030582994
97	0xbd7f54c9	-0.062336717
98	0xbd30c7a2	-0.043159135
99	0xbcaf02a3	-0.021363562
100	0x3d10a389	0.03531221
101	0x3d6371ee	0.055528574
102	0x3bb282aa	0.0054477053
103	0xbd90e5c6	-0.07075076
104	0x3c18470d	0.009294284
105	0xbc1c1739	-0.009527021
106	0xbd7c6c8a	-0.06162695
107	0x3d5ea992	0.054360934
108	0xbd64b181	-0.055833343
109	0xbd96c93f	-0.073626034
110	0xbc992692	-0.01869515
111	0x3d8f0269	0.069828816
112	0xbd9a5861	-0.07536388
113	0x3d1ce7e5	0.03830709
114	0xbd9b58ac	-0.07585272
115	0x3d0b94fa	0.034077622
116	0xbd4d40e6	-0.05011072
117	0x3d25d16d	0.040482927
118	0x3cd35077	0.025795205
119	0x3add2592	0.0016872159
120	0xbc97ea76	-0.018544417
121	0x3d61c5c3	0.05512024
122	0x3c1c6781	0.009546162
123	0x3ca06ad1	0.019582184
124	0x3d8bb6b5	0.06821958
125	0xbc0440d0	-0.008072093
126	0xbbb0897e	-0.005387484
127	0x3d94d856	0.07267825
128	0x3d3da535	0.04630013
129	0x3d4e7f5f	0.05041444
130	0x3c9a9b9f	0.018873034
131	0xbd89b785	-0.06724457
132	0x3cf22884	0.029560335
133	0xbd5c1f9c	-0.053741083
134	0xbacfa30d	-0.001584144
135	0xbd8876f4	-0.066633135
136	0x3d630e75	0.05543371
137	0xbd6f3812	-0.058403082
138	0xbceae814	-0.028675117
139	0xbd923110	-0.07138264
140	0x3d58ca41	0.05292726
141	0xbcb74a44	-0.02237428
142	0x3ccd3f4a	0.025054593
143	0x3d827010	0.063690305
144	0x3d5b26bc	0.053503737
145	0x3d126562	0.035741217
146	0xbd583e70	-0.05279392
147	0xbab87ad5	-0.0014074693
148	0xbd05029e	-0.0324732
149	0x3d01d733	0.03169937
150	0xbc688114	-0.014190931
151	0x3ca69beb	0.02033802
152	0x3cb297e7	0.021800948
153	0x399c94c1	0.0002986547
154	0x3d35c12a	0.04437367
155	0xbd263752	-0.0405801
156	0x3d2d1f96	0.04226645
157	0x3c37afb0	0.011211321
158	0x3d2de120	0.042451024
159	0xbd85c1f3	-0.065311335
160	0xbd8f13b2	-0.069861785
161	0x3d92ed54	0.07174173
162	0xbc87b045	-0.016563544
163	0x3d7eed7f	0.062238213
164	0x3ca58240	0.02020371
165	0x3d2292e3	0.039690863
166	0x3c83b0bd	0.016075486
167	0xbbdf0ac0	-0.0068067014
168	0xbc07c2c9	-0.0082861865
169	0x3d260f24	0.040541783
170	0xbc3bac93	-0.011454719
171	0x3ca92714	0.020648517
172	0xbc2ea5ed	-0.010659677
173	0xbc40c9d1	-0.011766867
174	0x3d763aff	0.060114857
175	0x3cbab0f4	0.022789456
176	0x3caa0b5c	0.02075737
177	0x3cf35c5a	0.029707123
178	0xbc2c8a7e	-0.010531066
179	0x3d4f7169	0.050645266
180	0x3d22f6a8	0.03978601
181	0x3cba0982	0.022709612
182	0x3d59db01	0.053187374
183	0xbc47e330	-0.012200162
184	0xbd4995ed	-0.049215246
185	0x3c9c64f8	0.019091114
186	0xbc1dfa00	-0.009642124
187	0x3d448a13	0.04798324
188	0xbce4c55e	-0.027926143
189	0xbd097a93	-0.03356416
190	0xbd160b70	-0.036632
191	0xbd620eec	-0.05519001
192	0xbd454ded	-0.04817002
193	0xbd9bb18e	-0.07602225
194	0x3c104040	0.008804381
195	0xbd3beb2d	-0.045878578
196	0x3cb2ab4a	0.021810193
197	0x3d38809b	0.045044523
198	0x3cf7ea08	0.030262962
199	0xbc965f4b	-0.018355986
200	0x3d00e786	0.031470798
201	0xbd967b89	-0.07347781
202	0xbd96a7b5	-0.07356206
203	0x3ccb65f4	0.024828888
204	0x3ba4b2ca	0.005026196
205	0xbbda728f	-0.0066664885
206	0xbd7ded44	-0.061993852
207	0x39d317b3	0.00040262713
208	0x3d3a3cf2	0.04546828
209	0x3d96bbb4	0.0736002
210	0x3cb64f1c	0.02225452
211	0xbc362972	-0.01111828
212	0xbc82367c	-0.01589512
213	0x3d39adf1	0.0453319
214	0xbd1dd5df	-0.03853404
215	0x3d0c6d5e	0.03428399
216	0x3b23a6de	0.0024971287
217	0xbcad36fa	-0.021144379
218	0x3d60c109	0.054871593
219	0x3d65976d	0.056052614
220	0xbd70f9ff	-0.058832165
221	0x3d963dcf	0.07336008
222	0xbd7ef81f	-0.062248345
223	0x3cb91088	0.02259089
224	0xbd104654	-0.03522332
225	0x3d8bc2f4	0.06824294
226	0x3d2a8b57	0.04163679
227	0xbd831c9c	-0.06401941
228	0xbc4b512c	-0.01240949
229	0xbd7de350	-0.06198436
230	0xbc9d932d	-0.019235218
231	0xbcfc1be0	-0.03077501
232	0xbcfc59ab	-0.030804476
233	0x3d411c2a	0.047146
234	0x3aba9229	0.0014234233
235	0xbc86769e	-0.016413983
236	0x3d88b432	0.066749945
237	0xbc93cec0	-0.018042922
238	0x3d4f2ffb	0.050582867
239	0xbd7997f3	-0.060935926
240	0xbcecb907	-0.028896822
241	0xbc9f2b2c	-0.019429766
242	0xbd7b3964	-0.06133403
243	0x3ca7c814	0.020481147
244	0x3d7d9ade	0.06191527
245	0xbd7ff378	-0.06248805
246	0xbcf64a32	-0.030064676
247	0xbd07ae6a	-0.03312532
248	0xbc375849	-0.011190482
249	0xbd544a6b	-0.051828783
250	0x3d2ed862	0.042686827
251	0xbd4cfe58	-0.05004725
252	0x3d98676e	0.07441603
253	0xbd3f3338	-0.046679705
254	0x3ba8e96a	0.0051547782
255	0x3d1fc549	0.039006505

fc2.weight f4 [128, 256]
0	0xbd1c4c55	-0.038158733
1	0xbd7a9d06	-0.061184905
2	0xbc909652	-0.017649803
3	0xbd2b1b25	-0.041773934
4	0x3d3f47a8	0.046699196
5	0x3cbe313c	0.023216836
6	0xbcabc221	-0.020966591
7	0x3c48d6b8	0.012258224
8	0x3d52952a	0.051411785
9	0xbce7144c	-0.02820792
10	0xbd259c06	-0.040432
11	0x3d52f972	0.05150742
12	0xbd3a0a62	-0.045420058
13	0x3c896733	0.016772842
14	0x3d276dc0	0.04087615
15	0xbbe92890	-0.007115431
16	0x3ccd986b	0.025097093
17	0x3d41cbe7	0.047313597
18	0xbb97d840	-0.0046339333
19	0x3ceba827	0.028766705
20	0x3b8766f0	0.004132144
21	0x3d2f7cff	0.042843815
22	0x3cc50625	0.024050782
23	0xbacf13f7	-0.0015798797
24	0xbd1beecc	-0.03806953
25	0x3d7211d7	0.059099045
26	0x3c8ff81e	0.017574366
27	0x3ce299af	0.027661173
28	0xbd4524d7	-0.048130836
29	0x3d256d58	0.04038748
30	0x3cd00412	0.025392566
31	0xbd34cbb8	-0.044139594
32	0xbd4bc2b6	-0.049746238
33	0xbcfe8a1a	-0.031071711
34	0xbd60308f	-0.05473381
35	0xbc88c0aa	-0.016693432
36	0xbbe63ded	-0.007026425
37	0xbd16076d	-0.036628176
38	0x3c506760	0.012719959
39	0x3d05c78e	0.032661013
40	0xbc2d4b04	-0.010576967
41	0xbd4b69ec	-0.04966156
42	0xbd35de7d	-0.044401634
43	0xbd6d0d58	-0.057874054
44	0xbd783e12	-0.06060607
45	0xbd76b37c	-0.060229763
46	0xbd699b17	-0.05703267
47	0xbcb4b0ef	-0.022057025
48	0x3ab3f880	0.0013730675
49	0x3d570318	0.052493185
50	0x3d052e06	0.032514594
51	0x3c88638a	0.016649026
52	0x3d759bfa	0.059963204
53	0x3d3d74bf	0.046253916
54	0xbcb94694	-0.022616662
55	0xbd41526c	-0.047197744
56	0x3cc824a7	0.02443154
57	0xbd3f140b	-0.046649974
58	0x3d69c5ed	0.057073522
59	0x3d5d824a	0.05407933
60	0xbcec2034	-0.02882395
61	0x3d23a059	0.03994784
62	0x3d700135	0.0585949
63	0x3cbb4862	0.022861663
64	0xbd421914	-0.047387198
65	0x3a694592	0.00088986114
66	0x3d66828b	0.05627684
67	0xbd755986	-0.05989983
68	0xbd03b8ba	-0.03215859
69	0xbd1db696	-0.038504206
70	0xbb7d4100	-0.003864348
71	0xbd15c142	-0.036561258
72	0xbce77bfa	-0.028257359
73	0xbd685373	-0.05672021
74	0x3d316d10	0.0433169
75	0x3d032f12	0.03202731
76	0x3d276982	0.040872104
77	0x3d3f4cba	0.04670403
78	0xbd03943b	-0.032123785
79	0xbbb9eb15	-0.005673776
80	0x3a07aa00	0.0005175173
81	0xbcd7a8ff	-0.0263257
82	0xbd6320c0	-0.055451155
83	0xbc2fe611	-0.010736004
84	0xbbfd9e0f	-0.0077397893
85	0xbd37175a	-0.044700004
86	0x3ca72b5d	0.02040642
87	0x3d2d38c2	0.042290457
88	0xbd699241	-0.057024244
89	0xbd2d75a7	-0.04234853
90	0x3ca2222e	0.019791689
91	0x3d683cc6	0.056698583
92	0x3c8d942e	0.017282572
93	0xbc4920d0	-0.0122758895
94	0xbc8360bc	-0.016037337
95	0x3ceec0a8	0.0291446
96	0xbcd61a87	-0.026135696
97	0xbcf07f0a	-0.029357452
98	0xbb8c3e79	-0.0042799083
99	0xbd7e36ad	-0.06206386
100	0x3ccf67ed	0.02531811
101	0x3d1ae8bb	0.037819605
102	0x3c83f197	0.01610641
103	0xbd2ca70e	-0.042151503
104	0x3c6d1a57	0.014471612
105	0x3d2b12a2	0.041765817
106	0xbd7d3889	-0.061821494
107	0xbd493024	-0.049118176
108	0x3d5737b2	0.05254335
109	0xbd62bcf3	-0.055355977
110	0xbce98e52	-0.028510246
111	0xbd2a890a	-0.041634597
112	0x3d6ce580	0.057836056
113	0x3c9c778a	0.01909997
114	0xbc0e4c6c	-0.008685213
115	0xbc8bc0b8	-0.017059669
116	0xbd788ddd	-0.060682166
117	0xbd0f23b3	-0.034946155
118	0x3bee69ab	0.00727578
119	0xbd5ca3d4	-0.053867176
120	0xbc5f369f	-0.0136238625
121	0xbbe90b73	-0.0071119606
122	0x3b129bbb	0.0022370655
123	0x3caa6872	0.020801757
124	0xbd390e5c	-0.04517971
125	0x3ba731a4	0.005102353
126	0xbc03b2fa	-0.008038277
127	0x3c9e3246	0.019311082
128	0x3c8a6864	0.01689548
129	0xbbd6bf5a	-0.0065535726
130	0x3c9bcf62	0.019019786
131	0x3d77f38e	0.060535006
132	0x3ca3cce1	0.019995155
133	0xbca4e075	-0.02012656
134	0xbd1d17f8	-0.038352937
135	0x3cfecc31	0.031103225
136	0x3c806e14	0.01567749
137	0x3c7be5c8	0.015374608
138	0x3d6b21b6	0.057405196
139	0xbcc0f200	-0.023552895
140	0x3d607710	0.054801047
141	0xbd0ff44b	-0.035145085
142	0xbb256dd3	-0.0025242462
143	0x3d4068cc	0.046974942
144	0xbc0d08c8	-0.008608051
145	0x3d745de8	0.05965987
146	0x3ced9bf8	0.029005036
147	0xbd550a40	-0.05201173
148	0x3cc6bb43	0.024259215
149	0x3c1efb35	0.009703447
150	0xbc87506a	-0.016517837
151	0x3d1c5cda	0.038174488
152	0xbd002975	-0.031289537
153	0x3c754812	0.014970796
154	0x3c98cb08	0.0186515
155	0xbc9f7b4a	-0.019467968
156	0xbc000c15	-0.007815381
157	0x3d6b8128	0.05749622
158	0x3d4af466	0.049549483
159	0xbd1e4866	-0.038643263
160	0xbd5635e3	-0.052297484
161	0x3d70d312	0.058795042
162	0x3d49b9e5	0.04924955
163	0xbd28dead	-0.041227985
164	0xbc3dff8a	-0.01159657
165	0xbc0127f0	-0.007883057
166	0x3a31841a	0.0006771699
167	0x3d4fbd86	0.050717853
168	0x3c98bef9	0.01864575
169	0xbb9f7e10	-0.0048673227
170	0x3d33c783	0.04389144
171	0x3bd23cc0	0.0064159334
172	0x3d43aef6	0.047774278
173	0x3d6483a5	0.05578961
174	0xbcf42d33	-0.029806709
175	0xbd617cf2	-0.055050798
176	0xbd397a9e	-0.045282952
177	0x3c03e5d6	0.008050403
178	0xbbf56aa7	-0.0074895206
179	0xbd522873	-0.051308107
180	0xbd413450	-0.04716903
181	0xbce197e5	-0.02753825
182	0x3c86a513	0.016436135
183	0x3c6721b2	0.014107155
184	0xbd072919	-0.03299818
185	0xbd3db284	-0.046312824
186	0x3cacbb58	0.021085426
187	0x3d68c98d	0.05683284
188	0xbd2ff6fb	-0.04296015
189	0xbd675cf4	-0.05648513
190	0xbd2fbfe5	-0.042907614
191	0x3d04c804	0.032417312
192	0xbd65517d	-0.055985916
193	0xbccd009f	-0.02502471
194	0xbd6e0c20	-0.058117032
195	0x3c47aa05	0.012186532
196	0x3c2ede16	0.010673067
197	0xbd15d44f	-0.036579426
198	0xbd60ffca	-0.05493144
199	0xbd3f36ff	-0.046683308
200	0x3d700306	0.058596633
201	0x3c7787d1	0.015108065
202	0x3c114450	0.008866385
203	0x3cdd9ae0	0.02705139
204	0x3cc25cdc	0.02372592
205	0xbc5a1d7e	-0.013312696
206	0x3d21cb4f	0.03950053
207	0xbd1dbbec	-0.038509294
208	0x3d7af89a	0.06127224
209	0xbca65978	-0.020306334
210	0xbcf8e7e1	-0.030384006
211	0xbc9b661b	-0.018969586
212	0xbd3ef9ec	-0.046625063
213	0xbc38204b	-0.011238168
214	0x3d7df4bd	0.06200098
215	0xbd5ac966	-0.053414725
216	0x3c9865e9	0.018603282
217	0xbc963339	-0.018334972
218	0x3d5784a8	0.052616745
219	0xbd7bf4b0	-0.06151265
220	0xbb58858e	-0.003303859
221	0xbc1dd66a	-0.00963364
222	0x3cbe4840	0.02322781
223	0xbd1c8f21	-0.038222436
224	0xbd741a03	-0.05959512
225	0x3c706de8	0.014674641
226	0xbd7c6d44	-0.06162764
227	0x3d1838d1	0.03716356
228	0x3d20f2fc	0.039294228
229	0xbcad8b26	-0.021184515
230	0x3ce8a244	0.028397687
231	0x3cf29318	0.029611155
232	0xbd695cb8	-0.05697319
233	0xbcf42824	-0.029804297
234	0xbcfb59e0	-0.030682504
235	0xbc870119	-0.016480016
236	0x3d0ed005	0.03486635
237	0x3d659dce	0.056058697
238	0x3d4044b4	0.04694052
239	0x3d499bb0	0.04922074
240	0xbd097c00	-0.03356552
241	0x3d6ef61e	0.058340184
242	0xbcd96795	-0.02653865
243	0xbd109108	-0.035294563
244	0x3c8c1e16	0.01710419
245	0xbd1e9f58	-0.03872618
246	0xbcc21d6a	-0.023695666
247	0xbd79d70f	-0.06099611
248	0xbd634aef	-0.055491384
249	0x3c33fbd5	0.010985334
250	0x3d7eaf04	0.062178627
251	0xbb2b6560	-0.0026152954
252	0xbbe8429e	-0.0070880195
253	0x3d5a8f60	0.05335939
254	0x3d56ae99	0.052412603
255	0xbaca4e2e	-0.0015434676

fc2.bias f4 [128]
0	0x3d4623a8	0.04837385
1	0xbd416dc1	-0.04722381
2	0xbd0b45f5	-0.034002263
3	0x3d0ef11b	0.034897905
4	0x3d32480d	0.043525744
5	0x3c953a96	0.018216413
6	0x3d078cb6	0.033093177
7	0x3d7a0387	0.06103852
8	0x3ce8112a	0.028328497
9	0xbc9a8700	-0.018863201
10	0xbd5b42cf	-0.05353051
11	0x3d0786ef	0.033087667
12	0xbc9ccbca	-0.019140143
13	0xb9fcb12f	-0.00048197198
14	0xbccba46d	-0.024858678
15	0xbd18e768	-0.03733006
16	0x3d75e005	0.060028095
17	0xbc1be83c	-0.009515818
18	0x3d391b83	0.045192253
19	0xbd31d660	-0.043417335
20	0xbd3d8b1b	-0.04627524
21	0xbc483b46	-0.012221163
22	0x3ce7592c	0.028240763
23	0x3c6b8908	0.0143759325
24	0x3d46ae70	0.0485062
25	0x3d1ee4d6	0.038792454
26	0xbd0c3972	-0.03423447
27	0xbd739fd2	-0.05947859
28	0xbd2ebb21	-0.04265893
29	0x3c712c50	0.014720038
30	0xbc8cd264	-0.017190166
31	0x3d367c92	0.044552393
32	0xbc257863	-0.010099503
33	0x3cf68312	0.030091796
34	0xbcc7c63c	-0.024386518
35	0x3d320c02	0.043468483
36	0x3c83a3e8	0.016069368
37	0xbd103392	-0.03520543
38	0x3d6222ee	0.055209093
39	0xbc94091c	-0.01807075
40	0xbc954654	-0.018222012
41	0xbcbc741d	-0.023004586
42	0x3c0a143e	0.008427678
43	0x3bd8e640	0.006619245
44	0xbd7eb3fa	-0.062183358
45	0x3b1ccd98	0.0023926254
46	0xbd38f370	-0.045154035
47	0xbcca691a	-0.02470832
48	0x3c5a6894	0.013330597
49	0x3d2d05e1	0.042241935
50	0xbd28c338	-0.0412018
51	0xbbc8eb47	-0.006131563
52	0x3a8e2b5a	0.001084666
53	0x3c66b90d	0.0140822055
54	0x3d79269d	0.06082784
55	0x3c889cc8	0.016676322
56	0x3d6a8bf4	0.057262376
57	0xbb989640	-0.004656583
58	0x3ca16e27	0.019705845
59	0xbc8f681f	-0.017505703
60	0xbd786594	-0.060643747
61	0x3ccf3b30	0.025296777
62	0x3d4f9c2a	0.05068604
63	0x3cd1173f	0.02552378
64	0xbd3d5f67	-0.04623356
65	0x3d29ae42	0.04142595
66	0x3d417763	0.047232997
67	0x3c99352c	0.018702112
68	0xbcd715d9	-0.026255535
69	0x3c2fc9f8	0.010729305
70	0xbd1b82e5	-0.037966628
71	0x3cc07950	0.023495346
72	0xbd5e2654	-0.05423577
73	0x3a347570	0.00068839546
74	0x3d3b68c3	0.045754205
75	0xbbb96510	-0.0056577995
76	0x3d2fd96a	0.04293195
77	0x3ca88413	0.02057079
78	0xbc546876	-0.012964359
79	0xbb374457	-0.0027964318
80	0x3d1a6d66	0.037701987
81	0x3ca1ad3e	0.019735929
82	0x3d7ed939	0.06221888
83	0xbc8aec03	-0.016958242
84	0xbcea7a3b	-0.028622737
85	0xbd13ddad	-0.03610008
86	0x3d1ec504	0.038762107
87	0xbcaa19b5	-0.020764211
88	0x3d39d943	0.045373213
89	0x3d527ff3	0.051391553
90	0x3d0e3380	0.034717083
91	0xbcfa6723	-0.030566758
92	0xbc28d574	-0.010304797
93	0x3c5f4f07	0.013629681
94	0x3c8efd16	0.017454665
95	0xbd19ae91	-0.037519995
96	0x3d77bb2d	0.06048124
97	0xbd06e4a5	-0.032932896
98	0x3ca7f0fe	0.020500656
99	0xbd32b9e6	-0.043634318
100	0x3d40d305	0.047076244
101	0xbc545190	-0.012958899
102	0xbd4d0402	-0.05005265
103	0xbc1d2487	-0.009591228
104	0x3d22c7be	0.03974127
105	0x3d6a8def	0.057264265
106	0x3c837865	0.01604862
107	0x3d72bc8c	0.059261844
108	0xbd77ff69	-0.060546312
109	0x3d7f2741	0.062293295
110	0xbcb9ca8c	-0.02267959
111	0xbc9f6407	-0.019456876
112	0x3b452b7f	0.003008574
113	0x3d5c8734	0.053839877
114	0x3d3306ef	0.043707784
115	0xbd53284d	-0.051552106
116	0x3ceb7166	0.028740596
117	0xbc44c270	-0.012009248
118	0x3ca4b42b	0.020105442
119	0xbd2a2037	-0.04153463
120	0x3c9ecf10	0.019385844
121	0x3ca4ca64	0.020116039
122	0x3d03f8ad	0.032219578
123	0x3d7f5a7c	0.062342152
124	0xbd7a10e8	-0.06105128
125	0xbd0d09cc	-0.03443317
126	0xbd6deaa1	-0.058085088
127	0x3c7f454d	0.015580487

fc3.weight f4 [2, 128]
0	0xbdab81c4	-0.0837436
1	0xba8e53be	-0.0010858697
2	0xbd390a43	-0.045175802
3	0xbd620847	-0.055183675
4	0x3d78f7d6	0.06078323
5	0xbc5e0ff7	-0.013553611
6	0x3ccce190	0.0250099
7	0x3d5afcbf	0.053463694
8	0xbdafd84e	-0.08586179
9	0xbd8a16da	-0.0674264
10	0x3cf2df5c	0.029647522
11	0xbb9aa68c	-0.004719561
12	0x3d99b45d	0.07505105
13	0xbd86e318	-0.065862834
14	0xbd7f01f2	-0.062257715
15	0xbd9d1313	-0.07669654
16	0xbd086da5	-0.03330769
17	0xbc860dfa	-0.016364086
18	0x3d25b680	0.04045725
19	0xbd28f4a8	-0.041248947
20	0xbc95b155	-0.018273035
21	0xbcb6576a	-0.02225848
22	0xbd836d45	-0.06417326
23	0x3cb85ad8	0.022504255
24	0x3d0618cb	0.03273849
25	0x3d61a65c	0.055090293
26	0xbd14ccfc	-0.0363283
27	0x3b881910	0.0041533783
28	0xbc5a635a	-0.013329351
29	0x3d4635c6	0.048391126
30	0xbd342953	-0.043984722
31	0xbc515292	-0.012776034
32	0xbc1206c8	-0.00891275
33	0xbd98f04a	-0.074677065
34	0xbd06cdf6	-0.032911263
35	0xbcf16b47	-0.0294701
36	0x3da338df	0.07969832
37	0x3ba4ab70	0.0050253198
38	0xbd23cff6	-0.03999325
39	0xbd65218e	-0.055940203
40	0xbd80998a	-0.06279285
41	0x3dac9747	0.08427291
42	0xbd737a16	-0.059442602
43	0xbd04cc6e	-0.03242152
44	0xbc4f0a41	-0.012636722
45	0x3d99199d	0.074755885
46	0xbd5300f8	-0.051514596
47	0xbda265bd	-0.07929561
48	0xbd321072	-0.043472715
49	0x3d39c59d	0.045354474
50	0xbc8a2799	-0.016864585
51	0xbbbae53c	-0.0057035964
52	0xbd519e8b	-0.05117659
53	0x3b35fb8e	0.0027768346
54	0x3b7dc929	0.0038724637
55	0xbdaae199	-0.083438106
56	0x3d525923	0.05135454
57	0x3d6b3742	0.057425745
58	0xbb51dd51	-0.0032022784
59	0xbcb00342	-0.021485928
60	0xbd402883	-0.046913635
61	0x39e45700	0.0004355237
62	0x3d539954	0.051659897
63	0xbda280d1	-0.07934726
64	0xbd9101d2	-0.07080425
65	0x3dbfdeed	0.093686916
66	0xbcece557	-0.028917952
67	0xbd2667bc	-0.040626273
68	0x3d102625	0.035192627
69	0xbdb289a3	-0.08717658
70	0x3d8f5a19	0.06999607
71	0xbb2639eb	-0.0025364112
72	0xbd71b68a	-0.059011973
73	0xbd15bbab	-0.036555927
74	0xbd92c6b6	-0.07166807
75	0x3d979bd5	0.074027695
76	0x3d4de56a	0.050267614
77	0x3c77426c	0.01509152
78	0x3cfeb47d	0.031091923
79	0xbd048ebe	-0.032362692
80	0x3d61cd2a	0.0551273
81	0x3d887977	0.066637926
82	0x3d534934	0.051583484
83	0xbbc220e6	-0.005924332
84	0x3d876dd4	0.06612745
85	0x3b05b011	0.0020399133
86	0x3d4bf32b	0.04979245
87	0xbc00247f	-0.007821201
88	0x3ce5c237	0.02804671
89	0xbcd3a7f5	-0.025836924
90	0xbd875f9a	-0.066100314
91	0x3cdca361	0.026933374
92	0x3d9b4298	0.07581061
93	0xbcfbedf7	-0.030753119
94	0xbd04eb64	-0.03245105
95	0x3d9087f8	0.07057184
96	0xbaf8ceb8	-0.0018982505
97	0x3da0db72	0.07854356
98	0xbd23312b	-0.039841812
99	0x3d5a918e	0.053361468
100	0xbd863143	-0.06552365
101	0xbd1fecdd	-0.03904425
102	0x3d56cfde	0.05244433
103	0x3c790ba2	0.015200527
104	0x3cf03632	0.029322717
105	0x3d488d47	0.048962858
106	0xbbce6c6f	-0.0062995474
107	0xbd01ceb7	-0.03169128
108	0xbd916fb0	-0.07101381
109	0xbc9baf58	-0.019004509
110	0xbd596445	-0.05307414
111	0x3d84abf4	0.0647811
112	0x3d827ad9	0.063710876
113	0x3d2aefd0	0.04173261
114	0x3cdc5d5b	0.026899984
115	0x3d8546e4	0.06507662
116	0x3d2a5670	0.04158634
117	0x3c994400	0.018709183
118	0xba2daa83	-0.00066248345
119	0x3d986631	0.074413665
120	0x3cb62136	0.022232633
121	0xbdaa5ac6	-0.08318095
122	0x3d4a5dee	0.049405985
123	0xbda7ea98	-0.08199042
124	0xbd327d49	-0.043576512
125	0x3daa17e3	0.08305337
126	0x3d393b10	0.045222342
127	0x3c77fd69	0.015136101
128	0xbd85ab97	-0.06526869
129	0x3d4e7644	0.050405756
130	0xbd1cf80d	-0.038322497
131	0x3d7b708b	0.061386626
132	0x3da5700c	0.08078012
133	0x3d94db93	0.07268443
134	0x3b0e3940	0.0021701604
135	0x3da2e4ee	0.07953821
136	0xbab441f6	-0.0013752568
137	0x3dab464a	0.08363016
138	0x3cef32e0	0.029199064
139	0x3cb7aa1b	0.02241998
140	0x3d0bcb2b	0.034129303
141	0xbc8a86c1	-0.016909959
142	0x3d562dea	0.05228988
143	0xbcafd6e3	-0.02146477
144	0x3cebba62	0.028775398
145	0x3d53ddf3	0.05172534
146	0x3d38639c	0.04501687
147	0xbdc9df1d	-0.098570086
148	0x3d07e98e	0.03318172
149	0xbd3ca5c2	-0.046056516
150	0x3c5889aa	0.013216415
151	0xbd2ed30d	-0.042681742
152	0xbd46c0e0	-0.048523784
153	0xbd2cb213	-0.042162012
154	0xbd529e0d	-0.05142026
155	0xbda566a1	-0.080762155
156	0xbd1a1fdf	-0.03762805
157	0x3c5efa58	0.013609491
158	0xbd80433f	-0.06262826
159	0xbcadfe81	-0.021239521
160	0xbd592d1f	-0.053021546
161	0x3d2555c7	0.040365007
162	0xbd6d3e82	-0.05792094
163	0xbc15e26e	-0.009148223
164	0x3ce404ec	0.027834378
165	0x3c9f578c	0.019450925
166	0xbda62fd6	-0.08114593
167	0xbcb794cc	-0.022409819
168	0xbd9e3aab	-0.07726034
169	0xbc3d251f	-0.011544495
170	0xbbb7fe3e	-0.005615025
171	0xbda3a4db	-0.07990428
172	0x3d12c9b7	0.0358369
173	0xbce667b2	-0.028125618
174	0xbd82cb5a	-0.063864425
175	0xbda78ea8	-0.081815064
176	0x3d17263c	0.036901698
177	0x3db1cea8	0.08681995
178	0xbd2599fd	-0.040430058
179	0xbda657ce	-0.08122216
180	0x3dac484b	0.08412226
181	0x3cbe4aa2	0.023228947
182	0x3d869713	0.06571784
183	0x3c29a663	0.010354611
184	0xbb59dfc5	-0.003324495
185	0x3c49eb70	0.012324199
186	0xbd2b15a9	-0.041768704
187	0xbd7018a4	-0.05861725
188	0x3cc2c044	0.02377332
189	0x3c537410	0.012906089
190	0x3cf5ae1d	0.02999025
191	0xbd966f8c	-0.07345495
192	0xbd3b9adf	-0.045801993
193	0xbbc8222c	-0.006107589
194	0xbdbfe7f0	-0.093704104
195	0xbd7e0940	-0.06202054
196	0xbcd6097a	-0.026127566
197	0x3cd38fc4	0.025825389
198	0xbcb6c250	-0.022309452
199	0x3dd6137d	0.10452936
200	0x3c5a7b87	0.013335115
201	0x3d51a1c8	0.051179677
202	0x3d0bde9c	0.034147844
203	0x3d672b1e	0.056437604
204	0xbd3d2ac5	-0.046183366
205	0xbd818132	-0.0632347
206	0x3d64ffa0	0.055907845
207	0x3d63687f	0.055519577
208	0x3d42101a	0.047378637
209	0xbc8a8a65	-0.016911695
210	0xbce8d9b4	-0.028424121
211	0xbd428721	-0.04749215
212	0xbc586812	-0.013208406
213	0xbd00fc7a	-0.03149078
214	0x3d3ca6d2	0.04605753
215	0xbcf845ec	-0.030306779
216	0xbd2e29c5	-0.042520303
217	0xbbcac87c	-0.0061884504
218	0x3d3d47f6	0.046211205
219	0xbd48587e	-0.048912518
220	0xbcefd41c	-0.029275946
221	0x3ce15780	0.027507544
222	0xbd43bf5e	-0.047789924
223	0xbd3f507a	-0.046707608
224	0xbd148ef5	-0.036269147
225	0xbd91f8f2	-0.07127561
226	0xbb3e6821	-0.0029053765
227	0x3d24f57e	0.040273182
228	0xbd57355e	-0.05254113
229	0x3dab1015	0.08352677
230	0x3c8fce84	0.017554529
231	0xb88914b1	-6.536523e-05
232	0x3d3662e6	0.04452791
233	0x3ac2517d	0.0014825311
234	0xbcf72287	-0.030167831
235	0x3c9e60b0	0.019333214
236	0x3cd0c336	0.025483709
237	0x3cca44b4	0.024690963
238	0x3d80fe39	0.06298489
239	0xbac11a19	-0.0014732509
240	0x3d10ff5f	0.03539979
241	0xbd031fd2	-0.032012768
242	0xbcc2b3bc	-0.023767345
243	0x3d68be38	0.05682203
244	0x3d6dd8c2	0.058068044
245	0xbd973fd4	-0.07385221
246	0x3bb4acff	0.005513787
247	0x3d8f54b5	0.069985785
248	0xbd0d8a6a	-0.03455583
249	0x3d97a6a4	0.07404831
250	0xbd8840ca	-0.066529825
251	0x3d84c7bf	0.06483411
252	0xbce10aaa	-0.027470905
253	0xbcefeab8	-0.029286727
254	0x3d8ab12f	0.06772076
255	0xbd840810	-0.0644685

fc3.bias f4 [2]
0	0xbbdbeecf	-0.006711818
1	0xbdaa38f3	-0.083116435

loss_fn.weight f4 [2]
0	0x3ecccccd	0.4
1	0x3f19999a	0.6
